screens/models/baseline.tflite (tflite, 750120 bytes, 18 tensors)

sequential/batch_normalization_v1/FusedBatchNormV3_add_param f4 [64]
-0.94074446 -0.46513942 -0.3637506 -0.07366715 -1.5455657 -0.51142156 -0.45523754 -1.0956967
-0.09691081 -1.6179012 -0.8304374 0.0018738064 -0.40987805 -1.1377114 -0.907065 -1.5886935
-1.6990939 -1.6031761 -1.8299266 -1.6722167 -1.8158753 -1.0641413 -0.33786923 -0.6156061
-1.5511956 -0.14451197 -0.004843267 -0.1581037 -1.0253248 -0.10926735 -0.65807784 -0.201024
-0.86492926 -0.27353004 -0.007303496 -0.19118436 -0.23039538 -1.0111187 -0.00095296063 -1.783994
-1.1167761 -0.028814308 -1.7430583 -1.5056213 -0.61652696 -1.440764 -0.20856391 -0.9557285
-0.36053964 0.0021878674 -1.6846194 -0.6933571 -0.1661938 -0.14516835 -1.6532836 -1.7256877
-1.0178535 -1.7974533 -1.5159307 -1.0998619 -0.008238379 -0.82736176 -0.31241518 -1.7688707
00000000: a1d4 70bf c126 eebe 853d babe cede 96bd
00000010: 19d5 c5bf 86ec 02bf e514 e9be ca3f 8cbf
00000020: 2d79 c6bd 6317 cfbf 8c97 54bf 829a f53a
00000030: 89db d1be 87a0 91bf 6935 68bf 4f5a cbbf
00000040: e97b d9bf e034 cdbf 093b eabf 320b d6bf
00000050: 9a6e e8bf c835 88bf 32fd acbe 5d98 1dbf
00000060: 948d c6bf f2fa 13be 45b4 9ebb f0e5 21be
00000070: d83d 83bf 8fc7 dfbd ca77 28bf 3cd9 4dbe
00000080: 016c 5dbf 210c 8cbe 2a52 efbb d5c5 43be
00000090: c4ec 6bbe 566c 81bf 1bd0 79ba ea59 e4bf
000000a0: 85f2 8ebf fc0b ecbc 891c dfbf 33b8 c0bf
000000b0: b6d4 1dbf f46a b8bf c791 55be 9faa 74bf
000000c0: a798 b8be 5362 0f3b 9ca1 d7bf da7f 31bf
000000d0: b52e 2abe 03a7 14be cc9e d3bf 56e3 dcbf
000000e0: 0649 82bf f312 e6bf 040a c2bf 46c8 8cbf
000000f0: 44fa 06bc fbcd 53bf e2f4 9fbe 5b6a e2bf

sequential/batch_normalization_v1/FusedBatchNormV3_mul_0_param f4 [64]
7.3042493 7.4286647 5.5212555 24.477755 3.2450154 7.7360463 6.5892544 5.760607
21.343847 1.4475929 6.1887565 31.5712 9.36966 5.0025063 4.2826586 2.8017755
2.1993768 3.5291083 2.786639 1.3715036 2.162551 6.4910936 4.5452104 6.31699
2.0673025 15.773139 31.2938 14.730251 5.762707 22.467377 8.012723 13.708648
4.359527 11.817578 30.781187 12.670533 16.036674 4.283518 31.578217 2.323847
2.6189494 28.87682 2.0251162 4.103105 8.623958 1.2013354 13.54612 4.9912515
9.966507 31.612635 3.3952508 5.665755 15.331834 20.033798 1.6883941 1.7803817
7.0688148 1.3493439 4.3124275 6.565324 30.852512 4.3442745 11.735393 1.3213583
00000000: 69bc e940 9fb7 ed40 20ae b040 71d2 c341
00000010: 55ae 4f40 b18d f740 2cdb d240 e456 b840
00000020: 33c0 aa41 b94a b93f 4b0a c640 d191 fc41
00000030: 21ea 1541 8814 a040 8a0b 8940 4a50 3340
00000040: 97c2 0c40 e9dc 6140 4b58 3240 6e8d af3f
00000050: 3c67 0a40 0ab7 cf40 5d72 9140 c824 ca40
00000060: af4e 0440 c75e 7c41 b459 fa41 1caf 6b41
00000070: 1968 b840 30bd b341 1d34 0041 9f56 5b41
00000080: 3f81 8b40 cd14 3d41 df3f f641 81ba 4a41
00000090: 1c4b 8041 9412 8940 30a0 fc41 e9b9 1440
000000a0: de9c 2740 ba03 e741 819b 0140 a34c 8340
000000b0: bbfb 0941 5cc5 993f e8bc 5841 55b8 9f40
000000c0: d076 1f41 ade6 fc41 ca4b 5940 dd4d b540
000000d0: 314f 7541 3845 a041 4c1d d83f 8ce3 e33f
000000e0: bb33 e240 4db7 ac3f 68ff 8940 2217 d240
000000f0: f2d1 f641 4c04 8b40 2bc4 3b41 4522 a93f

sequential/batch_normalization_v1_1/batchnorm/mul f4 [128]
4.490613 3.064819 3.026493 4.9455814 10.710175 25.951662 1.3876762 2.3670125
1.8941827 2.7066612 5.938266 1.8508706 2.6791031 2.86568 2.3330894 3.333281
29.072844 5.0200353 19.132614 2.6648092 22.429379 4.864975 6.9088078 22.839394
14.552126 2.3487942 21.61698 2.1630094 5.904847 20.460754 25.615881 22.114063
2.3086665 21.639753 30.504559 13.935939 10.863634 6.1076922 25.605751 4.3307543
3.3448086 23.743258 2.0430217 2.214765 1.3202397 20.49914 2.1884096 23.502356
2.6814578 2.562953 3.5794947 5.5292315 3.8997464 15.772819 1.3839347 2.7624493
2.2200098 1.7644424 2.4243844 3.060718 2.5835187 2.8980742 2.0076687 1.3320951
28.241667 1.7972041 2.4122872 23.323624 23.479168 4.015376 22.916908 4.7638607
5.28864 10.07714 4.23164 4.593465 5.49062 4.8984537 3.5411465 21.077078
2.9436643 21.570898 24.441124 23.178398 4.5580907 4.7649946 2.4724844 22.09928
3.216077 7.349358 23.118845 24.656414 16.388906 24.19544 2.051179 3.2335017
1.9958266 3.1354375 22.37291 20.607325 5.8003097 6.610751 21.085688 15.817009
2.419312 10.613017 7.4603066 24.679913 27.61274 2.651368 3.1129181 2.5153103
4.609463 5.752802 20.388466 5.391859 30.49125 24.731041 27.02019 29.534967
15.408769 23.16458 2.302941 2.4753354 23.660334 13.663453 26.005947 9.256892
00000000: 1ab3 8f40 ff25 4440 10b2 4140 3442 9e40
00000010: e05c 2b41 019d cf41 609f b13f 227d 1740
00000020: 9474 f23f f039 2d40 4606 be40 54e9 ec3f
00000030: 6d76 2b40 4d67 3740 5651 1540 7a54 5540
00000040: 2f95 e841 21a4 a040 980f 9941 3c8c 2a40
00000050: 5e6f b341 e0ad 9b40 f414 dd40 14b7 b641
00000060: 82d5 6841 a552 1640 93ef ac41 bf6e 0a40
00000070: 82f4 bc40 a0af a341 53ed cc41 9ae9 b041
00000080: 31c1 1340 371e ad41 5609 f441 9bf9 5e41
00000090: 72d1 2d41 3772 c340 94d8 cc41 8a95 8a40
000000a0: 5811 5640 31f2 bd41 dec0 0240 b6be 0d40
000000b0: 9dfd a83f 3dfe a341 e70e 0c40 d304 bc41
000000c0: 019d 2b40 6c07 2440 7116 6540 77ef b040
000000d0: 7295 7940 775d 7c41 c624 b13f f8cb 3040
000000e0: a414 0e40 40d9 e13f 1d29 1b40 cee2 4340
000000f0: 5f58 2540 0c7a 3940 a57d 0040 1882 aa3f
00000100: efee e141 c90a e63f ea62 1a40 c896 ba41
00000110: 56d5 bb41 f67d 8040 d455 b741 8c71 9840
00000120: 8a3c a940 f73b 2141 9869 8740 aafd 9240
00000130: 29b3 af40 22c0 9c40 25a2 6240 db9d a841
00000140: ff64 3c40 3391 ac41 6c87 c341 5c6d b941
00000150: e1db 9140 d67a 9840 2f3d 1e40 53cb b041
00000160: 35d4 4d40 f12d eb40 65f3 b841 5640 c541
00000170: 7b1c 8341 4390 c141 8446 0340 b1f1 4e40
00000180: 3f77 ff3f 02ab 4840 b8fb b241 cddb a441
00000190: 239c b940 468b d340 7daf a841 7812 7d41
000001a0: 02d6 1a40 ebce 2941 d5ba ee40 7670 c541
000001b0: e4e6 dc41 03b0 2940 0d3a 4740 d8fa 2040
000001c0: b980 9340 f416 b840 941b a341 1c8a ac40
000001d0: 14ee f341 2cd9 c541 5929 d841 9d47 ec41
000001e0: 518a 7641 0f51 b941 6363 1340 e56b 1e40
000001f0: 5d48 bd41 819d 5a41 2e0c d041 3b1c 1441

sequential/batch_normalization_v1_1/batchnorm/sub f4 [128]
-1.6844894 -1.9207478 -1.6714503 -2.1952128 -0.8269271 -0.70133907 -2.0586307 -2.8395097
-1.5718956 -1.624031 -1.2739526 -1.5527705 -1.7867328 -1.5673326 -1.2799239 -1.8986193
-0.50341046 -1.4188222 -0.82549095 -1.0644488 -1.1202309 -1.5506876 -1.0711716 -0.80110914
-1.6391376 -4.8706846 -1.5969733 -1.2981236 -1.7440741 -1.0354495 -1.1547226 -0.5398578
-1.8611012 -1.1142538 -0.24196468 -1.2306143 -1.9275551 -2.249338 -0.7298146 -1.6019372
-1.9699663 -0.7329383 -1.4754394 -1.2726725 -2.0400732 -1.2181982 -1.832838 -1.0694084
-1.1747688 -1.7685736 -2.2771986 -2.339812 -1.4427829 -1.1301001 -1.3064953 -1.4416499
-1.7095364 -2.057746 -1.341946 -2.7934108 -2.0406156 -1.9391713 -3.631959 -2.8526158
-0.5805267 -2.3845308 -1.627172 -0.72302735 -1.3867558 -1.465355 -1.2743849 -0.99167186
-0.95709485 -1.3614669 -2.2745678 -2.1308482 -2.1629925 -1.7925897 -3.4202209 -1.1914942
-3.8789623 -0.72321826 -0.785202 -1.0999277 -1.881988 -2.5097516 -2.1384606 -0.93665755
-2.105236 -1.0138289 -0.8388677 -1.1889249 -1.3782898 -1.0593739 -1.2930177 -2.179752
-1.6384444 -1.6220822 -0.7880778 -1.3069987 -1.15288 -2.090121 -0.7118677 -1.3395184
-1.5803568 -1.3100655 -1.6837379 -1.1992841 -0.53950524 -1.8271421 -2.1177747 -3.037561
-1.6238495 -2.563566 -1.0465704 -1.7091559 -0.2997196 -0.96045095 -0.8983154 -0.51499814
-0.8270539 -1.2157761 -1.8386077 -1.73286 -0.9521817 -1.0408216 -0.57686466 -0.873941
00000000: 599d d7bf 10db f5bf 15f2 d5bf 5e7e 0cc0
00000010: 7fb1 53bf f58a 33bf 9bc0 03c0 87ba 35c0
00000020: e033 c9bf 3fe0 cfbf e110 a3bf 2fc1 c6bf
00000030: a9b3 e4bf 5b9e c8bf 8cd4 a3bf f505 f3bf
00000040: 82df 00bf f79b b5bf 6053 53bf dc3f 88bf
00000050: ba63 8fbf ee7c c6bf 271c 89bf 7d15 4dbf
00000060: 43cf d1bf a6dc 9bc0 9f69 ccbf ea28 a6bf
00000070: d23d dfbf 9c89 84bf f3cd 93bf 1f34 0abf
00000080: 9038 eebf de9f 8ebf 97c5 77be c584 9dbf
00000090: 20ba f6bf 27f5 0fc0 21d5 3abf 470c cdbf
000000a0: db27 fcbf d8a1 3bbf 33db bcbf efe6 a2bf
000000b0: 8f90 02c0 ebed 9bbf 709a eabf 60e2 88bf
000000c0: d35e 96bf 9f60 e2bf 9fbd 11c0 7bbf 15c0
000000d0: 1cad b8bf 1fa7 90bf 3d3b a7bf fc87 b8bf
000000e0: 17d2 dabf 1cb2 03c0 e3c4 abbf 3ec7 32c0
000000f0: 7299 02c0 c436 f8bf 0472 68c0 4291 36c0
00000100: 669d 14bf 279c 18c0 2c47 d0bf 5218 39bf
00000110: 3781 b1bf c190 bbbf 0b1f a3bf 35de 7dbf
00000120: 2b04 75bf 8c44 aebf 8592 11c0 d15f 08c0
00000130: 786e 0ac0 9473 e5bf e6e4 5ac0 e282 98bf
00000140: eb40 78c0 d524 39bf 0003 49bf 6eca 8cbf
00000150: fce4 f0bf c59f 20c0 8adc 08c0 cac8 6fbf
00000160: 30bc 06c0 25c5 81bf 09c0 56bf b12e 98bf
00000170: cd6b b0bf 9099 87bf 9b81 a5bf 0f81 0bc0
00000180: 8cb8 d1bf 64a0 cfbf 77bf 49bf bc4b a7bf
00000190: 9291 93bf 8bc4 05c0 f63c 36bf 5775 abbf
000001a0: 2249 cabf 3ab0 a7bf b984 d7bf 2482 99bf
000001b0: 041d 0abf cbdf e9bf 9f89 07c0 6667 42c0
000001c0: 4dda cfbf 7711 24c0 05f6 85bf 9fc5 dabf
000001d0: d974 99be 1de0 75bf 00f8 65bf ebd6 03bf
000001e0: ceb9 53bf 8d9e 9bbf 7f57 ebbf 5bce ddbf
000001f0: 2ec2 73bf a439 85bf 67ad 13bf 99ba 5fbf

sequential/batch_normalization_v1_2/batchnorm/mul f4 [128]
1.0490943 1.6134017 1.1741692 1.7263224 1.4389391 1.6958091 2.7013009 2.4298103
2.0296261 2.2916672 1.736938 2.9176106 1.9357133 0.9910283 1.1122887 1.8822907
2.7373328 1.3501439 3.4318688 1.2026725 1.7068976 1.5470872 1.8819559 2.9834073
1.6121591 2.8316727 1.3115089 2.956047 3.020469 2.261413 2.014144 1.5105693
2.3856986 0.7514495 1.9613494 2.344923 1.6978265 1.4983613 1.6142263 2.3375692
1.6465722 1.7721364 3.0428088 2.170414 2.156932 2.7711425 0.6454699 1.4509279
2.391474 1.8005513 1.2975407 1.2037004 1.6346288 1.0974425 1.2570877 2.6747465
2.6731942 1.6987325 1.8393241 1.3985578 1.1456074 1.620526 1.8807726 2.4522822
2.536671 2.3056426 1.0311905 1.5654174 3.2759213 1.680464 1.4437732 1.7401677
1.1594658 1.3172305 1.9904217 1.1983651 3.4508452 2.5827312 1.8514565 2.6469276
3.177709 2.4404294 3.9258442 1.3288374 2.1381693 2.9585574 1.1097065 1.3508153
1.7896479 1.4373091 2.9475389 1.257061 1.6889962 3.0712194 2.6876965 1.5750308
2.9665608 2.0646079 1.9764459 2.8640156 2.588853 1.7549897 1.4270935 2.199735
1.8891809 2.4028382 2.2634053 1.6681294 2.8543568 1.3160493 2.6398435 2.431598
1.9958892 2.5995896 1.3179829 0.9736342 1.7249846 0.81988215 2.6425495 2.2067888
1.7403249 0.9885735 2.267399 1.9143808 2.959616 1.2806109 0.71576893 2.425444
00000000: b948 863f f283 ce3f 2d4b 963f 22f8 dc3f
00000010: 282f b83f 4610 d93f 1de2 2c40 0382 1b40
00000020: 65e5 0140 adaa 1240 fc53 de3f 22ba 3a40
00000030: 74c5 f73f 08b4 7d3f 7a5f 8e3f e7ee f03f
00000040: 7630 2f40 84d1 ac3f bda3 5b40 2cf1 993f
00000050: 9f7b da3f f406 c63f eee3 f03f 25f0 3e40
00000060: 3b5b ce3f 203a 3540 86df a73f e02f 3d40
00000070: 5d4f 4140 feba 1040 bce7 0040 565a c13f
00000080: 49af 1840 ff5e 403f 7f0d fb3f 3813 1640
00000090: 6152 d93f 4eca bf3f f89e ce3f bc9a 1540
000000a0: e1c2 d23f 5ed5 e23f 61bd 4240 10e8 0a40
000000b0: 2d0b 0a40 665a 3140 843d 253f 01b8 b93f
000000c0: e90d 1940 7778 e63f d015 a63f db12 9a3f
000000d0: 843b d13f ff78 8c3f 40e8 a03f 0c2f 2b40
000000e0: 9d15 2b40 1170 d93f f96e eb3f f103 b33f
000000f0: 43a3 923f 656d cf3f 28bd f03f 31f2 1c40
00000100: d158 2240 a68f 1340 0dfe 833f 995f c83f
00000110: b2a8 5140 7219 d73f 8fcd b83f d1bd de3f
00000120: 6069 943f 029b a83f 23c6 fe3f 0764 993f
00000130: a6da 5c40 784b 2540 87fc ec3f 4367 2940
00000140: 965f 4b40 ff2f 1c40 0841 7b40 5817 aa3f
00000150: c4d7 0840 0159 3d40 dd0a 8e3f 84e7 ac3f
00000160: 2f13 e53f bff9 b73f 7aa4 3c40 60e7 a03f
00000170: 0731 d83f dc8e 4440 3803 2c40 9c9a c93f
00000180: 22dc 3d40 8922 0440 2efc fc3f 084c 3740
00000190: c4af 2540 81a3 e03f 00ab b63f 75c8 0c40
000001a0: aed0 f13f 1ac8 1940 a2db 1040 4485 d53f
000001b0: c8ad 3640 4e74 a83f 32f3 2840 4d9f 1b40
000001c0: 4c79 ff3f ad5f 2640 aab3 a83f 1740 793f
000001d0: 4ccc dc3f cce3 513f 881f 2940 073c 0d40
000001e0: f7c2 de3f 2713 7d3f 111d 1140 6e0a f53f
000001f0: 596a 3d40 0feb a33f a23c 373f 793a 1b40

sequential/batch_normalization_v1_2/batchnorm/sub f4 [128]
-0.7281046 -0.6462592 -0.6199888 -0.77101815 -0.6890238 -0.7462212 -0.7612762 -0.7485713
-0.66041553 -0.7552333 -0.5613909 -0.73920184 -0.7634458 -0.66652423 -0.6833569 -0.66173136
-0.741784 -0.61213034 -0.75542474 -0.75975525 -0.8425753 -0.6769298 -0.68621624 -0.69304025
-0.7865193 -0.68136334 -0.57673365 -0.68924856 -0.720598 -0.9051396 -0.76716304 -0.8962181
-0.7199437 -0.7005858 -0.79081297 -0.7079383 -0.75283664 -0.61629534 -0.7701289 -0.86107427
-0.7592846 -0.85114056 -0.7945397 -0.67368114 -0.76144165 -0.7011681 -0.6381385 -0.6304634
-0.6678147 -0.79894567 -0.6843847 -0.6838283 -0.62796146 -0.6164652 -0.7291156 -0.7392244
-0.82557046 -0.9336792 -0.9121381 -0.72548187 -0.6009782 -0.75709754 -0.69284505 -0.81273705
-0.8277859 -0.7879897 -0.7196983 -0.6737308 -0.7374272 -0.6661208 -0.6843917 -0.62813026
-0.6947399 -0.8033913 -0.6526453 -0.7476969 -0.83803236 -0.7819352 -0.75355726 -0.68869793
-0.8753609 -0.6979674 -0.7249839 -0.6509715 -0.66235447 -0.75351614 -0.65383404 -0.69179815
-0.7560314 -0.7146041 -0.6097184 -0.7243655 -0.61915237 -0.72410524 -0.7245577 -0.6856999
-0.69730526 -0.7730178 -0.7134513 -0.74640465 -0.7544016 -0.5829975 -0.7909495 -0.7977754
-0.79152185 -0.8472875 -0.7640915 -0.7518436 -0.79556525 -0.66106266 -0.7393641 -0.6744149
-0.6531632 -0.8802053 -0.79822356 -0.69910085 -0.69730216 -0.6617573 -0.8668504 -0.7754989
-0.7082675 -0.6332376 -0.8737607 -0.6274214 -0.798354 -0.5729361 -0.71248525 -0.7897845
00000000: 1065 3abf 3e71 25bf 96b7 1ebf 7261 45bf
00000010: dd63 30bf 5a08 3fbf ffe2 42bf 5ea2 3fbf
00000020: fe10 29bf f856 41bf 50b7 0fbf 553c 3dbf
00000030: 2f71 43bf 55a1 2abf 7af0 2ebf 3a67 29bf
00000040: 8ee5 3dbf 93b4 1cbf 8463 41bf 527f 42bf
00000050: 04b3 57bf 454b 2dbf deab 2fbf 166b 31bf
00000060: 5459 49bf d46d 2ebf d1a4 13bf 9872 30bf
00000070: 1c79 38bf 3bb7 67bf cc64 44bf 8d6e 65bf
00000080: 3b4e 38bf 9759 33bf b872 4abf 723b 35bf
00000090: e7b9 40bf 88c5 1dbf 2b27 45bf 5d6f 5cbf
000000a0: 7a60 42bf 59e4 59bf f466 4bbf 5e76 2cbf
000000b0: d7ed 42bf c17f 33bf 0b5d 23bf 0d66 21bf
000000c0: e7f5 2abf b487 4cbf d633 2fbf 5f0f 2fbf
000000d0: 15c2 20bf aad0 1dbf 52a7 3abf cf3d 3dbf
000000e0: 9658 53bf 9a05 6fbf e281 69bf 2eb9 39bf
000000f0: b5d9 19bf 25d1 41bf 4b5e 31bf 890f 50bf
00000100: c7e9 53bf b1b9 49bf 263e 38bf 9f79 2cbf
00000110: 07c8 3cbf e586 2abf 4b34 2fbf 25cd 20bf
00000120: 79da 31bf 0dab 4dbf c313 27bf 1069 3fbf
00000130: 4a89 56bf e82c 48bf 21e9 40bf 824e 30bf
00000140: a717 60bf fead 32bf 8b98 39bf 11a6 26bf
00000150: 1090 29bf 6fe6 40bf ab61 27bf af19 31bf
00000160: 468b 41bf 4bf0 36bf 8116 1cbf 0470 39bf
00000170: c580 1ebf f65e 39bf 9d7c 39bf 078a 2fbf
00000180: 9982 32bf 7fe4 45bf bfa4 36bf 6014 3fbf
00000190: 7720 41bf 533f 15bf ab7b 4abf 023b 4cbf
000001a0: 2da1 4abf d5e7 58bf 809b 43bf d278 40bf
000001b0: 2aaa 4bbf 673b 29bf f746 3dbf 74a6 2cbf
000001c0: b435 27bf 2255 61bf 6158 4cbf 46f8 32bf
000001d0: 6582 32bf ed68 29bf e8e9 5dbf 1987 46bf
000001e0: 0551 35bf dc1b 22bf c8ae 5fbf b09e 20bf
000001f0: ee60 4cbf f1ab 12bf 6f65 36bf 512f 4abf

sequential/conv2d/Conv2D/ReadVariableOp i1 [64, 5, 5, 3] scale=0.0029232576 zero_point=0
0.058465153 -0.040925607 0.014616288 -0.23970713 -0.14031637 -0.21924433 0.008769773 0.023386061
-0.11400705 -0.043848865 0.07308144 -0.19585827 -0.043848865 -0.105237275 0.16077918 0.29524902
-0.1520094 0.25140017 -0.192935 0.31571183 -0.03507909 0.09062099 0.18124197 0.16370243
-0.13446985 -0.3244816 -0.14031637 0.21924433 0.08477447 -0.10231402 0.09062099 -0.093544245
-0.023386061 0.026309319 0.06138841 0.23093736 0.14616288 0.21047455 0.16954894 0.08769773
0.026309319 -0.12862334 0.055541895 -0.32155836 -0.28355598 -0.2981723 0.052618638 -0.13739312
0.023386061 0.16954894 -0.13739312 -0.03507909 -0.23678386 0.055541895 -0.11985356 0.07308144
0.03800235 0.14616288 0.0058465153 -0.192935 0.029232576 0.21924433 0.07015818 -0.046772122
0.2981723 -0.043848865 0.040925607 0.1520094 -0.020462804 -0.09062099 -0.040925607 -0.31863508
-0.36833048 -0.29232576 0.2894025 -0.3303281 0.12570009 -0.28647923 0.17831871 -0.029232576
0.11108379 0.081851214 0.18708849 0.011693031 0.13154659 -0.28355598 -0.16077918 0.105237275
-0.26601645 -0.20462804 -0.04969538 0.20462804 -0.07892796 0.13446985 0.07015818 -0.19585827
-0.11400705 0.017539546 -0.13446985 0.07308144 0.34786767 0.014616288 -0.36248395 -0.011693031
0.0760047 -0.18416524 -0.19878152 0.09939076 0.14908615 -0.026309319 0.008769773 0.26309317
-0.040925607 -0.16077918 -0.13739312 0.052618638 -0.07308144 0.046772122 0.12570009 0.03507909
0.08769773 0.03800235 0.09939076 -0.040925607 0.27186295 0.22509083 -0.18124197 0.29524902
0.058465153 0.043848865 -0.21047455 -0.07015818 0.23386061 0.27478623 -0.3654072 0.0
0.22509083 -0.07892796 -0.16077918 0.3303281 0.15493265 0.2280141 0.14908615 -0.18416524
-0.28355598 -0.08477447 0.116930306 -0.07308144 0.15785591 -0.052618638 -0.19001174 0.14616288
-0.30109555 -0.33617464 0.14323962 -0.22509083 -0.052618638 0.046772122 -0.10816053 0.16077918
-0.06431167 -0.13446985 0.026309319 0.026309319 0.26601645 -0.040925607 -0.11985356 0.032155834
-0.3390979 0.14616288 0.17831871 -0.15493265 -0.08477447 -0.093544245 0.03507909 0.17831871
-0.04969538 -0.16954894 -0.26016992 0.014616288 0.27770948 -0.0760047 -0.12570009 -0.105237275
0.3303281 -0.07015818 0.14323962 0.081851214 0.12862334 0.18124197 0.046772122 -0.21924433
-0.12570009 -0.2133978 -0.192935 0.116930306 0.2133978 -0.0058465153 -0.2280141 -0.15785591
-0.33325136 -0.18708849 0.04969538 0.14908615 -0.12862334 -0.28355598 0.0029232576 -0.08477447
-0.0058465153 -0.008769773 0.1520094 -0.17831871 -0.3244816 -0.040925607 -0.040925607 -0.1520094
0.19585827 -0.10816053 0.067234926 0.1520094 0.34786767 0.22509083 -0.18416524 -0.011693031
-0.046772122 -0.21632107 0.11108379 0.0029232576 -0.16370243 0.29524902 -0.14908615 0.33617464
0.14323962 0.3098653 0.0 -0.023386061 -0.0029232576 -0.14323962 0.2075513 -0.18708849
0.18124197 0.24555364 -0.040925607 -0.33325136 0.08769773 -0.093544245 -0.09062099 0.29232576
0.31863508 0.3654072 -0.055541895 0.029232576 -0.0029232576 0.081851214 0.07892796 -0.3040188
00000000: 14f2 05ae d0b5 0308 d9f1 19bd f1dc 3765
00000010: cc56 be6c f41f 3e38 d291 d04b 1ddd 1fe0
00000020: f809 154f 3248 3a1e 09d4 1392 9f9a 12d1
00000030: 083a d1f4 af13 d719 0d32 02be 0a4b 18f0
00000040: 66f1 0e34 f9e1 f293 829c 638f 2b9e 3df6
00000050: 261c 4004 2d9f c924 a5ba ef46 e52e 18bd
00000060: d906 d219 7705 84fc 1ac1 bc22 33f7 035a
00000070: f2c9 d112 e710 2b0c 1e0d 22f2 5d4d c265
00000080: 140f b8e8 505e 8300 4de5 c971 354e 33c1
00000090: 9fe3 28e7 36ee bf32 998d 31b3 ee10 db37
000000a0: ead2 0909 5bf2 d70b 8c32 3dcb e3e0 0c3d
000000b0: efc6 a705 5fe6 d5dc 71e8 311c 2c3e 10b5
000000c0: d5b7 be28 49fe b2ca 8ec0 1133 d49f 01e3
000000d0: fefd 34c3 91f2 f2cc 43db 1734 774d c1fc
000000e0: f0b6 2601 c865 cd73 316a 00f8 ffcf 47c0
000000f0: 3e54 f28e 1ee0 e164 6d7d ed0a ff1c 1b98

sequential/conv2d/Conv2D_bias f4 [64]
-0.00056108786 -0.008819356 -0.0004005205 -0.012171625 -0.00015203637 -0.0008448446 -0.005835208 0.002455929
-7.4334355e-05 -0.0033091826 0.006200458 0.00028378837 -0.004550659 0.004517318 0.0010890847 -9.055239e-05
-0.002311763 -0.0029806134 0.0005580247 0.0052561387 -0.0021978817 0.00093462516 -0.005037412 0.0076404233
0.008071709 -0.007951893 0.008293511 -8.227378e-05 -0.0022582354 -0.0037109407 0.0010092235 -1.5336303e-05
-0.0050426517 -0.0073947213 -0.010192906 -4.7276222e-05 0.0059325313 0.0005642927 0.0050172433 0.00016918065
-0.00629012 -0.0022211117 0.012580623 0.005833863 0.0020715895 0.008249481 0.0070493957 0.0088339895
-0.009932967 -0.00017029318 0.0028426575 0.0023296052 -0.002014184 0.0035369457 -0.007700667 0.0069693085
0.0055710874 0.0005364408 -0.0041577616 0.0005210469 -0.001239996 0.001910095 -0.011579283 0.0063780034
00000000: f815 13ba 0f7f 10bc f4fc d1b9 7f6b 47bc
00000010: f46b 1fb9 9078 5dba 4635 bfbb a7f3 203b
00000020: f4e3 9bb8 dfde 58bb 362d cb3b 6ec9 9439
00000030: b21d 95bb 0306 943b 9ebf 8e3a f2e6 bdb8
00000040: f280 17bb 6556 43bb 6748 123a b03b ac3b
00000050: 560a 10bb a201 753a e010 a5bb 845c fa3b
00000060: 343f 043c a848 02bc 82e1 073c 668a acb8
00000070: e7fe 13bb 4133 73bb ec47 843a 76a6 80b7
00000080: d43c a5bb 6b4f f2bb 2500 27bc 754a 46b8
00000090: ae65 c23b 0bed 133a b067 a43b 1666 3139
000000a0: 5a1d cebb 1290 11bb f51e 4e3c fd29 bf3b
000000b0: 81c3 073b d528 073c 9efe e63b 70bc 103c
000000c0: e2bd 22bc ba90 32b9 e14b 3a3b 4aac 183b
000000d0: 6600 04bb 1acc 673b e055 fcbb cc5e e43b
000000e0: ab8d b63b ef9f 0c3a d53d 88bb de96 083a
000000f0: 5d87 a2ba 275c fa3a 08b7 3dbc 92fe d03b

sequential/conv2d_1/Conv2D/ReadVariableOp i1 [64, 5, 5, 64] scale=0.0007200458 zero_point=0
-0.05832371 0.00864055 0.009360596 0.023761513 -0.010800688 0.020881329 0.031682014 -0.06696426
0.066244215 0.009360596 -0.08280527 -0.015841007 -0.013680871 0.043922797 0.038882475 0.0057603666
-0.003600229 0.05688362 -0.010080641 0.03096197 -0.018721191 -0.061203893 -0.010800688 0.02232142
0.08064513 0.0172811 -0.035282247 -0.02232142 -0.03960252 -0.021601375 -0.052563343 -0.033842154
-0.06480412 0.043922797 -0.027361741 -0.0050403206 -0.010800688 0.003600229 -0.011520733 0.028801832
-0.0064804126 -0.012960825 0.015841007 0.040322565 -0.010080641 -0.027361741 -0.030241925 0.0050403206
0.057603665 0.016561054 0.030241925 -0.07056449 0.07920504 -0.012240779 -0.024481557 -0.0050403206
-0.026641695 -0.0057603666 -0.018721191 0.05544353 -0.06768431 -0.025201604 -0.04824307 -0.03096197
-0.056163576 0.018001145 -0.007200458 -0.0064804126 -0.014400916 -0.028081788 0.04680298 -0.043922797
0.045362886 -0.015120963 0.061203893 0.036722336 0.00864055 -0.03096197 -0.05544353 0.033842154
0.04104261 0.00864055 -0.042482704 0.007920504 0.007920504 0.010080641 -0.003600229 -0.0345622
0.025201604 0.0021601375 -0.07920504 0.06336403 -0.03600229 -0.013680871 0.031682014 0.042482704
0.0518433 0.030241925 0.007200458 -0.057603665 0.02232142 0.057603665 0.0057603666 0.023041466
-0.07920504 0.004320275 0.033842154 -0.012960825 0.052563343 -0.019441238 -0.0050403206 -0.007920504
0.015841007 -0.007200458 -0.077044904 -0.06480412 -0.033842154 0.03816243 0.024481557 0.03816243
0.025201604 0.05688362 0.013680871 0.028081788 0.004320275 -0.019441238 0.023041466 0.02592165
0.06696426 0.054723483 -0.04824307 0.068404354 0.0172811 -0.045362886 -0.018001145 -0.0057603666
-0.007200458 0.0172811 -0.0345622 -0.010800688 0.014400916 -0.02592165 -0.004320275 0.009360596
-0.012240779 0.038882475 -0.027361741 0.07776495 0.012240779 0.038882475 -0.03240206 -0.020881329
0.0 -0.054723483 0.010800688 0.0 -0.023761513 -0.07560481 -0.033842154 0.047523025
0.024481557 -0.025201604 0.003600229 -0.048963115 0.030241925 -0.07128453 -0.050403208 -0.0172811
0.012240779 -0.025201604 0.009360596 0.020881329 -0.048963115 0.03240206 0.033122107 0.03096197
0.015120963 0.010080641 -0.023041466 0.016561054 -0.04968316 0.020881329 0.041762657 0.072724625
0.016561054 -0.07992508 -0.014400916 -0.0028801833 0.05544353 -0.06048385 0.05688362 -0.0057603666
0.018001145 0.010080641 -0.06336403 0.02232142 0.010800688 -0.04104261 -0.052563343 -0.027361741
-0.0518433 -0.015120963 0.03240206 -0.0014400916 -0.038882475 0.011520733 0.020161282 -0.0014400916
-0.052563343 -0.010080641 0.030241925 -0.027361741 -0.05832371 -0.023041466 0.035282247 0.057603665
-0.023761513 -0.042482704 -0.04968316 0.023041466 -0.018721191 -0.024481557 -0.033122107 -0.0050403206
0.074884765 0.003600229 0.04968316 0.03240206 0.018001145 0.045362886 0.056163576 -0.05544353
0.07128453 0.004320275 -0.045362886 -0.031682014 -0.026641695 -0.064084075 0.0172811 -0.04968316
-0.037442382 -0.025201604 -0.018001145 -0.061203893 0.02232142 0.046082933 -0.018001145 -0.018721191
-0.06696426 0.0007200458 0.013680871 -0.06480412 0.03600229 0.037442382 0.033842154 -0.047523025
00000000: af0c 0d21 f11d 2ca3 5c0d 8dea ed3d 3608
00000010: fb4f f22b e6ab f11f 7018 cfe1 c9e2 b7d1
00000020: a63d daf9 f105 f028 f7ee 1638 f2da d607
00000030: 5017 2a9e 6eef def9 dbf8 e64d a2dd bdd5
00000040: b219 f6f7 ecd9 41c3 3feb 5533 0cd5 b32f
00000050: 390c c50b 0b0e fbd0 2303 9258 ceed 2c3b
00000060: 482a 0ab0 1f50 0820 9206 2fee 49e5 f9f5
00000070: 16f6 95a6 d135 2235 234f 1327 06e5 2024
00000080: 5d4c bd5f 18c1 e7f8 f618 d0f1 14dc fa0d
00000090: ef36 da6c 1136 d3e3 00b4 0f00 df97 d142
000000a0: 22dd 05bc 2a9d bae8 11dd 0d1d bc2d 2e2b
000000b0: 150e e017 bb1d 3a65 1791 ecfc 4dac 4ff8
000000c0: 190e a81f 0fc7 b7da b8eb 2dfe ca10 1cfe
000000d0: b7f2 2ada afe0 3150 dfc5 bb20 e6de d2f9
000000e0: 6805 452d 193f 4eb3 6306 c1d4 dba7 18bb
000000f0: ccdd e7ab 1f40 e7e6 a301 13a6 3234 2fbe

sequential/conv2d_1/Conv2D_bias f4 [64]
0.0078330245 -0.0017005776 -0.0005780621 -0.00052109367 -0.00022816594 -0.004815205 0.006617458 0.009284812
0.0013571162 7.130971e-05 0.0015762239 -0.009054237 -0.0026440234 -0.0007758893 0.003278725 -0.0003025023
-0.0042950334 0.0009318693 0.0001360583 -9.5020136e-05 2.401875e-05 0.011916674 -0.009660009 0.014234312
-0.00018305663 0.0037745289 -0.0006964079 0.0037465992 0.008445416 0.00020071815 0.003869693 0.0052071307
0.0022493785 -0.005360982 0.00025295385 -0.008462406 0.009903317 5.3985394e-05 -0.0027883127 -0.00011052385
0.0012950763 -0.0054607736 -0.0005040195 0.0010855261 0.0066696173 -9.668614e-05 0.0032910446 0.0030778002
0.0039547915 -0.0048567597 -0.0012732364 -0.00285948 -0.0034604028 0.0026371123 0.004021256 -8.6421365e-05
0.0015961855 -0.0022168995 -0.004152644 0.007915684 0.0031696158 0.0022255273 0.00065917865 -2.1273172e-05
00000000: 1656 003c eae5 deba 1789 17ba 019a 08ba
00000010: d43f 6fb9 dec8 9dbb 43d7 d83b 531f 183c
00000020: 43e1 b13a 1c8c 9538 4c99 ce3a 3958 14bc
00000030: 5a47 2dbb 0d65 4bba e1df 563b 2c99 9eb9
00000040: 5abd 8cbb b148 743a dfaa 0e39 8c45 c7b8
00000050: df7b c937 273e 433c 0445 1ebc 0837 693c
00000060: e4f2 3fb9 165e 773b 258f 36ba 8189 753b
00000070: a45e 0a3c de77 5239 ad9a 7d3b 94a0 aa3b
00000080: 4f6a 133b 2dab afbb e49e 8439 e7a5 0abc
00000090: 8641 223c 606e 6238 20bc 36bb 0ac9 e7b8
000000a0: 8dbf a93a 4af0 b2bb 2d20 04ba 3648 8e3a
000000b0: ce8c da3b fac3 cab8 91ae 573b ebb4 493b
000000c0: 3297 813b 7425 9fbb b9e2 a6ba 1d66 3bbb
000000d0: edc7 62bb 67d3 2c3b bec4 833b 1e3d b5b8
000000e0: 1937 d13a 6749 11bb e712 88bb c9b0 013c
000000f0: 54b9 4f3b 27da 113b bbcc 2c3a ca73 b2b7

sequential/conv2d_2/Conv2D/ReadVariableOp i1 [128, 5, 5, 64] scale=0.0007190937 zero_point=0
0.049617466 -0.014381874 0.008629125 0.014381874 0.007910031 0.014381874 -0.015820062 -0.04026925
0.0014381874 -0.0057527497 0.014381874 0.0115054995 -0.029482841 -0.04026925 -0.020853717 0.0014381874
-0.051774748 -0.049617466 0.012224593 0.037392873 0.04098834 0.0798194 -0.009348218 -0.043864716
-0.039550155 -0.010786406 0.005033656 0.0 0.043864716 0.045302905 0.012224593 -0.031640124
0.030201936 -0.022291906 -0.027325561 0.04026925 -0.051055655 -0.06399934 0.009348218 0.026606467
0.007910031 0.039550155 -0.033078313 0.010067312 0.07262847 -0.06759481 0.024449186 0.028763749
0.012224593 0.023730092 0.05824659 0.005033656 0.0043145623 0.03092103 -0.025168281 0.03092103
-0.0115054995 0.038831063 -0.055370215 -0.009348218 0.043145623 0.020134624 0.065437526 -0.04026925
-0.062561154 0.07478575 0.049617466 0.014381874 -0.04242653 0.062561154 0.047460184 0.0
-0.008629125 0.033078313 0.028044656 -0.035954684 0.016539156 -0.035954684 -0.012224593 -0.020134624
-0.07047118 0.038111966 0.0043145623 0.051774748 0.020134624 -0.058965683 -0.07047118 -0.047460184
0.043145623 -0.038831063 -0.009348218 -0.018696437 0.043145623 -0.005033656 0.0115054995 -0.053212933
0.009348218 0.05249384 0.0057527497 -0.041707434 0.0057527497 -0.04098834 -0.013662781 -0.0115054995
0.039550155 0.04242653 -0.049617466 0.053212933 -0.0115054995 -0.012943687 -0.038111966 0.0028763749
0.007190937 -0.038831063 0.044583812 0.023730092 0.0057527497 -0.07262847 0.04817928 0.03523559
0.028763749 0.049617466 0.031640124 0.009348218 -0.030201936 -0.023010999 0.0 -0.08125759
0.044583812 -0.0035954686 -0.022291906 0.05824659 -0.009348218 -0.053212933 0.058965683 0.015100968
0.010067312 -0.016539156 0.0035954686 -0.05824659 -0.050336562 -0.012943687 0.060403872 0.007910031
0.015100968 -0.043864716 -0.028044656 0.019415531 0.010786406 0.021572812 -0.028763749 -0.0007190937
-0.0115054995 -0.005033656 0.0035954686 -0.056808405 0.04242653 0.03667378 0.0064718435 -0.05249384
0.043864716 -0.029482841 0.045302905 0.060403872 -0.007910031 0.012224593 0.016539156 0.04674109
0.007910031 -0.0064718435 0.038831063 0.07478575 0.05249384 -0.03523559 0.060403872 0.015100968
0.012943687 -0.012943687 -0.0115054995 0.07334756 0.028763749 0.025887374 -0.020853717 -0.06759481
-0.071190275 0.019415531 0.021572812 0.041707434 0.028044656 0.023010999 0.01725825 -0.037392873
0.007910031 -0.055370215 0.020853717 0.0 -0.030201936 0.045302905 0.0043145623 0.007190937
-0.060403872 0.023730092 0.047460184 0.033797406 -0.018696437 0.06328025 -0.0064718435 -0.044583812
0.0 -0.050336562 0.04817928 0.038111966 0.015100968 0.05249384 -0.015820062 0.04026925
0.038831063 -0.028763749 0.0007190937 -0.030201936 0.05249384 0.024449186 -0.038831063 0.0064718435
0.015820062 -0.016539156 0.019415531 -0.020853717 0.010786406 -0.038831063 -0.061122965 -0.013662781
0.020853717 0.048898373 0.03092103 -0.015820062 -0.05393203 -0.0007190937 -0.010786406 0.057527497
0.0345165 -0.0064718435 -0.0043145623 -0.020853717 0.051055655 -0.068313904 -0.01725825 0.0007190937
0.01725825 -0.043864716 -0.013662781 -0.014381874 -0.037392873 -0.0064718435 -0.015820062 -0.053212933
00000000: 45ec 0c14 0b14 eac8 02f8 1410 d7c8 e302
00000010: b8bb 1134 396f f3c3 c9f1 0700 3d3f 11d4
00000020: 2ae1 da38 b9a7 0d25 0b37 d20e 65a2 2228
00000030: 1121 5107 062b dd2b f036 b3f3 3c1c 5bc8
00000040: a968 4514 c557 4200 f42e 27ce 17ce efe4
00000050: 9e35 0648 1cae 9ebe 3cca f3e6 3cf9 10b6
00000060: 0d49 08c6 08c7 edf0 373b bb4a f0ee cb04
00000070: 0aca 3e21 089b 4331 2845 2c0d d6e0 008f
00000080: 3efb e151 f3b6 5215 0ee9 05af baee 540b
00000090: 15c3 d91b 0f1e d8ff f0f9 05b1 3b33 09b7
000000a0: 3dd7 3f54 f511 1741 0bf7 3668 49cf 5415
000000b0: 12ee f066 2824 e3a2 9d1b 1e3a 2720 18cc
000000c0: 0bb3 1d00 d63f 060a ac21 422f e658 f7c2
000000d0: 00ba 4335 1549 ea38 36d8 01d6 4922 ca09
000000e0: 16e9 1be3 0fca abed 1d44 2bea b5ff f150
000000f0: 30f7 fae3 47a1 e801 18c3 edec ccf7 eab6

sequential/conv2d_2/Conv2D_bias f4 [128]
-0.00094470073 -0.0010763439 0.0015011821 -0.003427338 -0.0027787525 -0.0014039716 0.0035110214 -0.0035785302
0.001245395 -0.00030922928 -0.00019346685 0.0002007898 -0.002230997 0.0010978538 -0.0017839995 -0.000722638
0.0023072443 0.0021485195 0.0048967632 0.0026535175 -0.0034052571 0.0021237934 0.00020268609 0.00015979103
-0.0011376077 0.0008569568 -0.0012370772 0.0009018947 0.00015918478 -4.014142e-05 0.0044051255 0.0026930752
0.006206113 -0.005645386 0.001992706 0.0003733441 0.0020997515 0.0016850634 -0.0015401549 -0.00018435637
-0.0011976779 0.00080006564 0.0031216128 -0.0020117937 0.0005901032 -0.0038026806 -0.00018933434 0.0009418987
-0.00036476456 -0.0021803058 -0.0006686024 -0.0022265702 -0.00063459703 -0.00040243525 -0.0020952856 0.0016017134
0.0020401096 0.002087406 0.001211362 0.0043282895 -1.6520087e-05 -0.0021670654 -0.00040682548 -0.00091291184
0.0009530335 -0.0002711708 0.0013610005 0.0012024797 -0.00309741 0.0018900576 0.0012389725 0.0021151167
0.00095741043 -0.00068807293 0.0039013824 -0.0020974355 -0.0015254574 -0.0016109587 -0.0017331255 -0.0002015304
0.0035200152 0.0006462583 -0.00082795793 -0.0009195091 0.0025091989 -0.0027361077 0.0033750695 0.0027325384
0.0034085598 -0.001037058 0.00047343026 0.00019439711 -0.006225825 0.00040064374 6.866805e-05 0.0015573984
-0.0020296453 0.0014914311 -0.002841657 -0.0006288316 -0.0009313092 -0.004756261 -0.0023229262 0.0025417567
0.00301113 0.0012590268 -1.6309505e-05 4.7771868e-05 0.003338211 -0.002560752 -0.0041348333 0.0010411668
0.0021560758 -0.0014313705 0.00023335789 0.0042093205 -0.000107810236 0.0015754942 0.0013065359 -0.0004646345
0.0045499858 -0.00012401187 0.0032651331 0.0019481559 -0.0010710058 0.0012633414 0.00047286213 0.0026094224
00000000: cba5 77ba 1c14 8dba 50c3 c43a 319d 60bb
00000010: bb1b 36bb 7805 b8ba 2a19 663b c685 6abb
00000020: 863c a33a 0d20 a2b9 5ddd 4ab9 1a8b 5239
00000030: eb35 12bb dce5 8f3a 17d5 e9ba 6a6f 3dba
00000040: 2335 173b 2dce 0c3b 0775 a03b a3e6 2d3b
00000050: bc2a 5fbb 572f 0b3b 2288 5439 948d 2739
00000060: c81b 95ba 66a5 603a 6c25 a2ba 216d 6c3a
00000070: d7ea 2639 865d 28b8 df58 903b 4e7e 303b
00000080: a65c cb3b eefc b8bb 0f98 023b 66bd c339
00000090: fc9b 093b 58dd dc3a 06df c9ba c94f 41b9
000000a0: 67fb 9cba 7fbb 513a f993 4c3b 4cd8 03bb
000000b0: 28b1 1a3a 6536 79bb 0d88 46b9 c0e9 763a
000000c0: df3d bfb9 76e3 0ebb 2645 2fba a6eb 11bb
000000d0: 165b 26ba f2fd d2b9 0f51 09bb 95f0 d13a
000000e0: 5cb3 053b ddcc 083b 90c6 9e3a 53d4 8d3b
000000f0: 9e94 8ab7 5305 0ebb 314b d5b9 7a50 6fba
00000100: ffd4 793a ee2b 8eb9 9963 b23a 869c 9d3a
00000110: ebfd 4abb cfbb f73a 0565 a23a c59d 0a3b
00000120: bafa 7a3a cb5f 34ba 56ae 7f3b 2175 09bb
00000130: dbf1 c7ba ce26 d3ba 0b2a e3ba e851 53b9
00000140: 0eb0 663b a969 293a 510b 59ba 360b 71ba
00000150: 5f71 243b 4550 33bb 4530 5d3b 6314 333b
00000160: 2562 5f3b e4ed 87ba bc36 f839 14d7 4b39
00000170: 0102 ccbb 7e0d d239 e101 9038 9e21 cc3a
00000180: cc03 05bb 207c c33a 183b 3abb 2dd8 24ba
00000190: 1a23 74ba 69da 9bbb 3c3c 18bb 9a93 263b
000001a0: 6156 453b ee05 a53a 65d0 88b7 a75e 4838
000001b0: e3c5 5a3b 4ad2 27bb 7f7d 87bb c377 883a
000001c0: f34c 0d3b d39c bbba 88b1 7439 57ee 893b
000001d0: 2e18 e2b8 d080 ce3a 1240 ab3a 309a f3b9
000001e0: 0c18 953b 2f09 02b9 d8fb 553b 4459 ff3a
000001f0: fe60 8cba b496 a53a 7bea f739 d802 2b3b

sequential/conv2d_3/Conv2D/ReadVariableOp i1 [128, 5, 5, 128] scale=0.0005038644 zero_point=0
0.032751184 -0.0367821 -0.027208677 -0.049378708 0.012596609 -0.021666167 -0.008565694 0.026200946
-0.013100473 -0.037285965 0.004030915 0.0005038644 0.011085017 0.050386436 0.049378708 -0.011085017
-0.021666167 0.026704812 -0.004030915 0.026704812 0.048874844 0.03476664 -0.017131388 0.016627524
0.041316878 0.00806183 -0.010581152 0.022170033 -0.009573423 0.03476664 0.01612366 0.02771254
-0.041316878 0.028216405 -0.00806183 0.022170033 -0.0020154575 0.014612067 -0.026704812 -0.04585166
-0.0060463725 -0.029727997 0.010077287 0.0015115931 0.014108202 -0.036278233 0.0020154575 0.007557966
-0.015115932 -0.019146847 -0.024689354 -0.04736325 0.0010077287 -0.01965071 0.032751184 -0.037285965
0.051394165 0.022673897 0.026704812 0.021162303 -0.046859387 0.009573423 0.027208677 -0.0065502366
-0.022170033 -0.054921217 0.025193218 0.046355523 -0.01965071 0.023177762 -0.004030915 -0.0010077287
0.02418549 -0.010077287 0.035270505 -0.01612366 -0.029224133 0.056936674 0.03577437 0.0030231862
0.021666167 -0.0055425083 -0.02418549 0.01612366 0.04585166 0.041820742 0.016627524 -0.0015115931
-0.00806183 0.01612366 -0.027208677 -0.022673897 0.018642982 0.042324606 -0.008565694 0.0025193219
-0.012596609 -0.019146847 0.0055425083 0.028216405 0.027208677 0.009573423 -0.046355523 0.0065502366
-0.018139116 -0.031239592 -0.03930142 -0.03577437 0.057944402 0.020154575 -0.040813014 0.010077287
-0.033255048 -0.033255048 0.04585166 -0.03930142 0.057440538 0.016627524 0.017635252 0.013100473
0.029224133 0.035270505 0.0065502366 0.007054101 -0.0060463725 0.009069558 0.013100473 -0.0050386437
-0.023177762 0.011085017 0.012092745 -0.023177762 0.007557966 0.022170033 0.00806183 0.010581152
0.0050386437 -0.015619796 0.027208677 0.054417353 -0.044340067 -0.020658439 -0.026704812 -0.023177762
-0.0020154575 -0.012092745 -0.053409625 0.028216405 -0.023177762 -0.020154575 -0.020658439 -0.004030915
-0.011085017 0.0065502366 0.007557966 -0.036278233 0.010077287 -0.013604338 -0.0030231862 -0.051394165
0.017131388 0.015619796 0.021162303 -0.00806183 -0.041820742 0.017131388 0.020658439 -0.0060463725
0.049882572 -0.023681626 0.034262776 -0.0065502366 -0.032751184 0.021666167 -0.015619796 0.017635252
0.034262776 0.013100473 -0.03577437 0.0005038644 -0.033255048 0.02418549 -0.025193218 -0.053409625
0.017635252 -0.004534779 -0.041820742 -0.037285965 0.025697082 0.04585166 0.031239592 -0.03476664
-0.041316878 0.0030231862 0.03577437 -0.010077287 -0.032751184 0.022170033 0.0020154575 0.041316878
-0.026200946 0.015115932 -0.0060463725 0.041820742 -0.0508903 -0.018642982 -0.018642982 0.025697082
0.033758912 0.020658439 0.033255048 0.030735727 -0.021162303 -0.025193218 -0.0020154575 -0.010581152
0.004030915 -0.0030231862 -0.008565694 0.019146847 -0.008565694 -0.054417353 0.026200946 -0.022170033
0.017131388 -0.0010077287 -0.0035270506 0.05391349 -0.0015115931 -0.0050386437 0.0055425083 0.036278233
0.042324606 -0.020658439 -0.0050386437 0.035270505 0.009069558 -0.008565694 0.009069558 -0.02418549
-0.04736325 0.034262776 -0.0015115931 -0.019146847 0.03224732 -0.03577437 -0.039805286 0.009573423
-0.0050386437 0.0025193219 0.010077287 0.028720269 -0.04837098 -0.033758912 -0.012596609 0.041820742
00000000: 41b7 ca9e 19d5 ef34 e6b6 0801 1664 62ea
00000010: d535 f835 6145 de21 5210 eb2c ed45 2037
00000020: ae38 f02c fc1d cba5 f4c5 1403 1cb8 040f
00000030: e2da cfa2 02d9 41b6 662d 352a a313 36f3
00000040: d493 325c d92e f8fe 30ec 46e0 c671 4706
00000050: 2bf5 d020 5b53 21fd f020 cad3 2554 ef05
00000060: e7da 0b38 3613 a40d dcc2 b2b9 7328 af14
00000070: bebe 5bb2 7221 231a 3a46 0d0e f412 1af6
00000080: d216 18d2 0f2c 1015 0ae1 366c a8d7 cbd2
00000090: fce8 9638 d2d8 d7f8 ea0d 0fb8 14e5 fa9a
000000a0: 221f 2af0 ad22 29f4 63d1 44f3 bf2b e123
000000b0: 441a b901 be30 ce96 23f7 adb6 335b 3ebb
000000c0: ae06 47ec bf2c 0452 cc1e f453 9bdb db33
000000d0: 4329 423d d6ce fceb 08fa ef26 ef94 34d4
000000e0: 22fe f96b fdf6 0b48 54d7 f646 12ef 12d0
000000f0: a244 fdda 40b9 b113 f605 1439 a0bd e753

sequential/conv2d_3/Conv2D_bias f4 [128]
-0.0038880885 0.0022440166 0.000607117 0.0043657282 -0.004234197 0.0024077608 0.00016897116 0.0007210628
0.0026111929 0.0012407145 -0.0012431559 0.0012610167 0.00092591834 -0.003678985 0.0009166876 0.0033661376
0.0015419321 0.0012468831 -0.0019456124 0.0010608783 -0.0027929412 0.004569779 -0.0014262613 -0.0024973226
0.0011591163 3.7498343e-05 -0.0021608986 0.0019056113 0.0010935378 -0.003715839 -0.0027883735 0.0012176543
0.0021118268 -0.0037620487 -0.0017132028 -0.0003218952 -0.003914304 -0.0017584553 0.0021129318 -0.00049335207
0.002521229 -0.00045473175 0.0005112258 0.004546927 0.0009905159 0.0021735507 0.0019898375 -0.003153963
0.0010579858 0.0007074928 0.001222241 0.0007691949 -0.00089749525 -0.0027115925 -8.528297e-05 0.0003485967
0.003626487 0.0006787156 0.000107221866 -7.44598e-06 -0.0016765546 -0.00087720924 0.0003558777 -0.00049308507
0.00040178315 0.0009396873 0.001030694 -0.0034933488 -0.0017577965 0.0042996276 -0.0055182967 0.0017649997
0.0031619968 0.00029964294 -0.0019859716 0.00015618266 0.003202653 0.0038639384 -0.00049806794 -0.0010123315
0.0021727898 -0.006276431 0.0020449408 -0.0012489911 0.0019792705 0.003609161 0.0014957695 0.0020089408
0.002321691 -0.0004319493 -0.002096149 -0.0020426218 0.00048830436 -0.005362173 -1.3007531e-05 0.0001393173
-0.001129223 0.0010226289 -0.0013292874 -0.0018618171 0.001863259 0.0019165283 0.00097413064 -5.7325236e-05
-0.0005142783 -0.0006602785 0.002129229 0.0037647102 -0.0035843488 0.00079942454 0.0012679292 0.0012733183
0.0007710913 0.0017932152 -0.0058995266 -0.0018071977 -0.0027111736 -0.0029908365 -0.0026619597 -0.0018958822
-0.0030628275 -0.0020075385 -0.00016884784 0.00062662445 0.00041862112 -0.0011676891 0.00045314626 -0.0008466196
00000000: 4dcf 7ebb 5a10 133b ef26 1f3a 620e 8f3b
00000010: 05bf 8abb 86cb 1d3b da2d 3139 b505 3d3a
00000020: 8c20 2b3b 789f a23a 64f1 a2ba b348 a53a
00000030: 54b9 723a 201b 71bb dd4d 703a 6b9a 5c3b
00000040: a81a ca3a 746e a33a eb03 ffba 2b0d 8b3a
00000050: c709 37bb 16be 953b 63f1 baba 1faa 23bb
00000060: 7ded 973a 8a47 1d38 dd9d 0dbb b4c5 f93a
00000070: 0a55 8f3a 6f85 73bb 25bd 36bb b399 9f3a
00000080: 9366 0a3b b48c 76bb 8c8d e0ba 0bc4 a8b9
00000090: 9043 80bb f87b e6ba 1d79 0a3b 4c54 01ba
000000a0: 343b 253b 1069 eeb9 c803 063a 63fe 943b
000000b0: 33d4 813a 2172 0e3b ef67 023b b8b2 4ebb
000000c0: 1dac 8a3a 0a77 393a 9a33 a03a cca3 493a
000000d0: e345 6bba f9b4 31bb f2d9 b2b8 dbc3 b639
000000e0: 5baa 6d3b d5eb 313a 4ddc e038 7bd8 f9b6
000000f0: d6bf dbba 84f4 65ba 1995 ba39 6142 01ba
00000100: 6ca6 d239 5955 763a 5a18 873a abf0 64bb
00000110: dd65 e6ba e4e3 8c3b d4d2 b4bb 9057 e73a
00000120: 8139 4f3b 6519 9d39 1327 02bb f7c4 2339
00000130: 9ae3 513b 213a 7d3b c690 02ba 35b0 84ba
00000140: 5d65 0e3b 85aa cdbb 6a04 063b 30b5 a3ba
00000150: a6b6 013b ac87 6c3b b20d c43a 6fa8 033b
00000160: 8327 183b 4177 e2b9 8b5f 09bb 82dd 05bb
00000170: 8d01 003a 2bb5 afbb ec3a 5ab7 b415 1239
00000180: 7002 94ba bb09 863a 7c3b aeba 3708 f4ba
00000190: 9938 f43a 0534 fb3a cd5c 7f3a 8170 70b8
000001a0: a2d0 06ba 8a16 2dba 898a 0b3b 5bb9 763b
000001b0: 65e7 6abb 7990 513a a530 a63a 79e5 a63a
000001c0: 1023 4a3a 510a eb3a d150 c1bb 7edf ecba
000001d0: f2ad 31bb e901 44bb 4674 2ebb 407f f8ba
000001e0: b8b9 48bb e890 03bb bf0c 31b9 0e44 243a
000001f0: 607a db39 250d 99ba 4394 ed39 aeef 5dba

sequential/dense/MatMul/ReadVariableOp/transpose i1 [128, 128] scale=0.002300651 zero_point=0
0.17484948 0.2070586 -0.110431254 -0.1932547 -0.1081306 0.197856 -0.18405208 -0.07362083
-0.08972539 -0.20935924 0.059816927 -0.22776446 -0.18175143 0.0069019534 0.13343777 -0.009202604
0.17484948 -0.052914973 -0.20935924 0.24156836 -0.1081306 -0.12423515 -0.018405208 0.17715013
0.08742474 -0.17024818 0.13803907 0.09662735 -0.08512409 0.048313674 0.02300651 0.2116599
0.066718884 0.059816927 0.004601302 -0.018405208 0.1173332 0.066718884 0.098928 0.011503255
-0.112731904 -0.062117577 0.14954232 -0.07822213 0.048313674 0.018405208 0.11503255 -0.055215627
-0.066718884 -0.09202604 0.002300651 0.062117577 0.1265358 0.1081306 -0.13343777 0.13343777
-0.22086251 0.13803907 0.0 -0.04141172 -0.11503255 0.04371237 0.032209113 0.18865338
0.15874492 0.13803907 -0.0069019534 0.039111067 0.07362083 -0.04371237 0.052914973 -0.08282344
0.059816927 0.1265358 -0.013803907 -0.2530716 0.08052278 0.025307162 -0.04141172 0.018405208
-0.09202604 0.08052278 -0.013803907 -0.08512409 -0.029908463 -0.14954232 -0.002300651 -0.2116599
-0.16334623 0.2116599 -0.036810417 0.15414362 0.009202604 -0.02300651 -0.09432669 0.013803907
-0.07822213 0.018405208 0.07822213 -0.11963385 -0.029908463 -0.1311371 -0.013803907 -0.07362083
0.22776446 -0.059816927 0.10122865 -0.050614323 -0.16564688 0.110431254 -0.15874492 -0.1035293
-0.06441823 -0.048313674 0.057516277 -0.02070586 -0.27607813 0.15414362 0.07132018 0.016104557
0.004601302 -0.09432669 0.18865338 0.16794753 -0.07822213 -0.08972539 0.06901953 0.02300651
-0.1265358 -0.16794753 0.19095403 0.17715013 0.009202604 -0.004601302 0.09662735 0.09432669
0.009202604 -0.12423515 0.06441823 0.09202604 -0.1932547 -0.10122865 0.26687554 0.17484948
0.07362083 0.19095403 -0.197856 0.07592148 -0.1265358 0.18175143 0.11963385 0.19095403
-0.14954232 -0.002300651 -0.22086251 0.16334623 0.23236576 0.20015664 -0.09432669 0.16334623
0.1173332 0.098928 -0.004601302 0.034509767 0.14033972 -0.1035293 -0.029908463 -0.13803907
0.2530716 -0.1219345 0.15874492 0.11503255 0.011503255 0.14954232 -0.14954232 0.09432669
0.25077096 0.027607813 -0.07822213 -0.08742474 -0.112731904 -0.0069019534 -0.04141172 -0.009202604
0.057516277 -0.06441823 0.19095403 -0.052914973 -0.011503255 -0.2300651 -0.1035293 0.20475794
-0.09202604 0.08282344 0.11503255 -0.02300651 -0.11963385 -0.2530716 0.050614323 0.039111067
0.07132018 -0.15644427 -0.027607813 -0.0069019534 0.07362083 0.029908463 0.1035293 -0.2392677
0.004601302 -0.13573842 0.18175143 0.09662735 0.09432669 0.197856 0.07822213 0.04371237
-0.08512409 -0.2070586 0.14954232 0.10122865 -0.21396054 -0.002300651 -0.098928 0.11963385
-0.02300651 0.16334623 0.19555534 0.12423515 0.1173332 0.052914973 0.28528073 -0.20935924
-0.21856184 -0.016104557 -0.10122865 0.048313674 0.011503255 0.02070586 0.0069019534 -0.04141172
-0.16794753 -0.18175143 0.110431254 -0.07592148 -0.15644427 -0.110431254 0.16334623 0.23696706
-0.112731904 0.027607813 -0.15414362 -0.04371237 -0.26457486 0.13343777 0.08052278 0.1311371
00000000: 4c5a d0ac d156 b0e0 d9a5 1a9d b103 3afc
00000010: 4ce9 a569 d1ca f84d 26b6 3c2a db15 0a5c
00000020: 1d1a 02f8 331d 2b05 cfe5 41de 1508 32e8
00000030: e3d8 011b 372f c63a a03c 00ee ce13 0e52
00000040: 453c fd11 20ed 17dc 1a37 fa92 230b ee08
00000050: d823 fadb f3bf ffa4 b95c f043 04f6 d706
00000060: de08 22cc f3c7 fae0 63e6 2cea b830 bbd3
00000070: e4eb 19f7 8843 1f07 02d7 5249 ded9 1e0a
00000080: c9b7 534d 04fe 2a29 04ca 1c28 acd4 744c
00000090: 2053 aa21 c94f 3453 bfff a047 6557 d747
000000a0: 332b fe0f 3dd3 f3c4 6ecb 4532 0541 bf29
000000b0: 6d0c deda cffd eefc 19e4 53e9 fb9c d359
000000c0: d824 32f6 cc92 1611 1fbc f4fd 200d 2d98
000000d0: 02c5 4f2a 2956 2213 dba6 412c a3ff d534
000000e0: f647 5536 3317 7ca5 a1f9 d415 0509 03ee
000000f0: b7b1 30df bcd0 4767 cf0c bded 8d3a 2339

sequential/dense/MatMul_bias f4 [128]
-0.0005370508 -1.20832665e-05 0.0003378293 0.008823158 -0.0014271513 0.00010217537 -0.0010731155 -0.0018409935
0.0008466843 -0.0030486663 -3.7168866e-05 0.0016446476 0.0017303382 0.00020307781 0.0058176355 0.0008908341
0.002892109 0.0017062762 0.0037205035 0.001781934 0.00094011 0.0031285947 -0.0005643982 -0.0010636696
-0.0006229679 0.003583362 0.0004212461 -0.001800564 0.0017750945 -0.0010814873 -0.0002735424 0.0016020993
-0.0026244554 0.0010728562 0.0013460807 -0.0019819175 0.0027153273 -0.0005192338 0.0017641624 0.0033658314
-0.001480586 0.003211666 0.0070611765 0.0034842244 -0.0068305987 0.00541044 0.0005049458 0.0020807674
-0.0029602775 -0.001461179 -0.00054744654 0.0009122994 0.001226817 -0.00013480631 0.0031821583 2.356539e-05
0.0014146056 -0.00018589132 -0.0041204044 0.00082657987 0.0015621611 -0.00033668146 -0.000698656 0.0041855597
0.0021390463 -0.010571658 -0.00026628564 0.005809754 0.0014551333 0.0009751237 0.0016311595 -0.0031744535
0.001665973 0.001828567 0.0014599897 -8.8695524e-05 -0.006518641 0.0019041437 0.00028883413 0.0012204569
-0.0030046774 0.00050712656 0.0024449495 0.00047590796 -0.0010319527 0.00801139 0.0022336768 0.00029479366
0.0049150554 0.0015113332 0.0045682453 0.0039039808 0.0016842363 0.00012050312 -0.0019590063 -0.0011754909
-0.0007123611 0.0014995905 0.0001653739 0.0034079915 -0.0011525309 -0.0010112335 0.0043454063 -0.0018853266
0.0048656734 0.00030939592 0.0021306477 0.0048954524 0.0029303487 -8.906541e-06 0.003151344 0.00900978
3.397374e-05 0.0038529409 -0.003086018 -0.00055326545 -0.0007938873 0.005615435 0.0026347097 0.000900931
-0.0005937483 -0.0015471138 -0.0017996818 0.0021101928 -0.00056797825 0.000890177 0.0018197495 0.00084732875
00000000: dec8 0cba 3cb9 4ab7 ae1e b139 028f 103c
00000010: 400f bbba fc46 d638 c8a7 8cba 7e4d f1ba
00000020: 06f4 5d3a 22cc 47bb c4e5 1bb8 3791 d73a
00000030: 84cc e23a 49f1 5439 dda1 be3b dd86 693a
00000040: 8a89 3d3b 21a5 df3a b1d3 733b c98f e93a
00000050: b771 763a 1c09 4d3b 1ff4 13ba d46a 8bba
00000060: ab4e 23ba d7d6 6a3b b2da dc39 e700 ecba
00000070: 4aaa e83a b1c0 8dba 3d6a 8fb9 88fd d13a
00000080: 0eff 2bbb 159f 8c3a f96e b03a 0fe3 01bb
00000090: a2f3 313b 311d 08ba 783b e73a 4895 5c3b
000000a0: 3910 c2ba d07a 523b 7161 e73b 9657 643b
000000b0: 37d3 dfbb 0f4a b13b 575e 043a 7c5d 083b
000000c0: 3701 42bb 0885 bfba 8482 0fba 6027 6f3a
000000d0: 26cd a03a cb5a 0db9 c28b 503b 4aae c537
000000e0: 4a6a b93a d2eb 42b9 7504 87bb d6ae 583a
000000f0: 6ec1 cc3a 9f84 b0b9 0326 37ba 0527 893b
00000100: 3e2f 0c3b bf34 2dbc 419c 8bb9 c05f be3b
00000110: 2cba be3a 729f 7f3a a1cc d53a 7e0a 50bb
00000120: c75c da3a 87ac ef3a 205d bf3a 0c02 bab8
00000130: 539a d5bb 7694 f93a a96e 9739 bdf7 9f3a
00000140: 1fea 44bb b0f0 043a 723b 203b 4983 f939
00000150: 9642 87ba 3542 033c e162 123b 898e 9a39
00000160: 790e a13b ed17 c63a 38b1 953b eed9 7f3b
00000170: 98c1 dc3a 9fb6 fc38 ac62 00bb ee12 9aba
00000180: bfbd 3aba e88d c43a 3868 2d39 9c58 5f3b
00000190: 8510 97ba 5e8b 84ba e963 8e3b 101d f7ba
000001a0: 3a70 9f3b 6b36 a239 56a2 0b3b 086a a03b
000001b0: 180b 403b 4d6d 15b7 c786 4e3b c29d 133c
000001c0: 077f 0e38 9f81 7c3b ca3e 4abb 0409 11ba
000001d0: e01c 50ba af01 b83b 18ab 2c3b 752c 6c3a
000001e0: c6a5 1bba 86c8 caba 4de3 ebba 294b 0a3b
000001f0: 60e4 14ba c45a 693a a984 ee3a 451f 5e3a
