android/app/src/main/assets/models/baseline_data_aug.tflite (tflite, 750120 bytes, 18 tensors)

sequential/batch_normalization_v1/FusedBatchNormV3_add_param f4 [64]
000000 3c 12 dc be f8 7e 3a bc 76 89 79 be 52 7c 1a bf
       -0.42982662 -0.011382811 -0.24368843 -0.6034595
000010 b8 33 50 bf 2c 7a 21 bf f0 5b c1 be 1a e3 43 be
       -0.81328917 -0.63077044 -0.37765455 -0.19129601
000020 09 a3 24 be 23 cd 40 bf 2e 94 b0 3d 24 91 8b bd
       -0.16077818 -0.75313014 0.08622013 -0.06814793
000030 1e 1f d2 be b4 f7 64 3c fb b1 1a bf c5 63 e3 bd
       -0.41039366 0.013975073 -0.60427827 -0.11103014
000040 d7 33 8e bd d0 a8 6c be fd 17 51 be 44 0e dd bd
       -0.069434814 -0.23111272 -0.20419307 -0.107937366
000050 b6 6b e5 3c 63 79 20 3c 25 03 b0 be 2b a9 0e bf
       0.028005462 0.009794566 -0.343774 -0.5572688
000060 fc 2b 19 be 57 13 27 bf f4 9e 5b bf 43 ef b4 bc
       -0.14958185 -0.65263885 -0.8578942 -0.022086745
000070 a7 f9 e9 bd f2 5f 16 bf ee ec fb bd 71 79 0b bf
       -0.114245705 -0.5874015 -0.1230105 -0.5448218
000080 18 1b a6 be 80 14 26 be 7b 22 91 be 5b 00 e3 bc
       -0.32442546 -0.16218758 -0.2834662 -0.02771013
000090 aa db 96 be 3f 94 d0 be 69 74 5a bd ba 7e a8 be
       -0.29464465 -0.40738103 -0.053333674 -0.32909185
0000a0 49 5f 63 3d 08 98 89 bd b0 86 0e be 57 4f bf be
       0.055510793 -0.06718451 -0.13918567 -0.3736522
0000b0 05 e6 ba be ec 79 91 bd 14 45 d1 be 1e 06 c5 3b
       -0.36503616 -0.07103333 -0.40873015 0.006012692
0000c0 8a 91 7c be 05 a9 5e bf 45 a2 82 be e8 e3 78 bc
       -0.24664894 -0.86976653 -0.25514427 -0.015191056
0000d0 ff e8 10 bd 7e f9 ca be 9f 13 04 bf aa 05 b2 3e
       -0.035378452 -0.39643472 -0.5159244 0.34769946
0000e0 20 9e 75 bd 08 95 5d bf 65 d0 89 be b3 af 14 bf
       -0.059965253 -0.8655553 -0.26916805 -0.58080596
0000f0 29 cf 83 be 8e 91 e7 be 3c 8e 5a bf 16 08 91 be
       -0.25743988 -0.45228237 -0.8537328 -0.28326482

sequential/batch_normalization_v1/FusedBatchNormV3_mul_0_param f4 [64]
000000 b7 e7 b0 40 04 2b fc 41 c2 0c 21 40 b2 4e d0 3f
       5.5282855 31.521004 2.5164037 1.6274016
000010 8e 81 97 3f fb 12 f1 3f 0c e1 a8 40 30 7c fc 41
       1.1836412 1.8833917 5.2774715 31.560638
000020 95 1f 20 41 4f ab 4d 3f 5e c5 00 42 cd 43 1b 41
       10.00771 0.8033952 32.19274 9.704053
000030 3b f3 88 40 44 0b 50 41 f7 85 8f 3f a0 f1 0c 41
       4.279691 13.00275 1.1212758 8.8089905
000040 2c 78 0d 41 8b 75 00 40 56 50 89 40 8a bd 03 41
       8.841839 2.0071743 4.2910566 8.233774
000050 94 6f fb 41 dc fb fa 41 35 c5 89 40 0c 63 aa 3f
       31.429482 31.372978 4.305323 1.3311477
000060 97 49 1f 41 63 72 8d 3f ff cc c3 3f 6c 74 fb 41
       9.955466 1.1050533 1.5296935 31.431847
000070 f1 88 1c 41 0d 44 8b 3f ed 66 fb 41 7e 6d f5 3f
       9.783433 1.0880142 31.425257 1.9174039
000080 13 6e e9 40 8c 94 f6 41 0a f7 4c 40 ce 88 f3 41
       7.294687 30.822533 3.202578 30.4418
000090 1e e9 90 40 d0 17 82 40 f9 4e fb 41 45 da 28 40
       4.5284567 4.065407 31.41356 2.638322
0000a0 25 2d c6 41 7c 0a 26 41 68 03 3e 41 f6 31 e5 3f
       24.772043 10.37756 11.875832 1.7905872
0000b0 5f d7 ff 3f 6e 79 52 41 ae 99 79 40 72 c6 fa 41
       1.9987601 13.154646 3.9000049 31.346897
0000c0 23 a6 f8 40 54 77 4a 3f 75 87 b5 40 0b 56 fb 41
       7.7702804 0.7908833 5.6727853 31.417013
0000d0 61 53 fd 41 56 26 12 40 74 e5 9e 40 fe 98 f9 41
       31.665712 2.2835898 4.9655094 31.199703
0000e0 46 6f b5 41 77 07 95 3f b1 19 eb 3f 24 81 a5 3f
       22.679333 1.1642903 1.8367215 1.2930036
0000f0 de 9e 9a 40 e6 10 92 3f ce 18 64 3f 47 7b dd 3f
       4.831893 1.1411407 0.8910035 1.7303246

sequential/batch_normalization_v1_1/batchnorm/mul f4 [128]
000000 12 00 6a 3f 1a 4c 31 3e d7 fa fb 41 5d 06 ee 3e
       0.9140636 0.17314187 31.49748 0.4648923
000010 de 65 18 3f 14 6f a8 3f 47 08 2c 3f eb 74 80 3f
       0.59530437 1.3158898 0.6720013 1.003568
000020 10 8b 04 3f ff d4 f8 41 ea 69 1e 3e a7 52 a8 3e
       0.5177469 31.104002 0.1547009 0.3287556
000030 0b 02 2f 3e 62 97 a0 3d a0 1a c2 3f 0e 4a 94 3d
       0.17090623 0.07841374 1.5164375 0.07240687
000040 f0 66 21 41 17 27 ed 40 78 fe c5 40 8d 32 fb 41
       10.087631 7.4110217 6.187313 31.399683
000050 2c d0 0b 3f 56 25 59 40 17 01 d1 3d ef e8 f2 41
       0.5461452 3.3929038 0.10205286 30.363737
000060 9a 45 f5 3e d9 b0 7a 3e d5 b4 1a 3f 5a ec 10 3e
       0.47904664 0.24481525 0.6043218 0.14152661
000070 0d 9b bf 3d 67 4b a2 3d 10 6b 5f 3e 26 7e e7 3d
       0.093557455 0.07924538 0.21818185 0.11303358
000080 79 1d 20 3f 6c b3 fa 3e a8 e3 93 40 fe 34 44 3e
       0.6254497 0.48965013 4.62154 0.1916084
000090 2d 7f 75 3e 46 da 5b 41 09 08 30 40 ff 67 b8 41
       0.23974295 13.740789 2.7504904 23.05078
0000a0 5d 0b 37 40 53 4a b6 3e 3d 69 76 3e 31 fc 86 3e
       2.8600686 0.3560358 0.24063583 0.26364282
0000b0 d5 10 fb 41 25 56 9e 41 e7 4c 9d 41 7c 7e b0 3f
       31.383219 19.792063 19.66255 1.37886
0000c0 81 ec 78 3e 76 e0 05 3e a1 0a 5f 3e 6b 29 c0 3d
       0.24308969 0.13073906 0.21781398 0.093829
0000d0 50 04 bc 3d cd ef b2 3d 13 7e e1 40 72 0d 18 3e
       0.0918051 0.087371446 7.04664 0.14848879
0000e0 cc 8e 04 3e bc 2b 14 41 78 76 fb 41 16 09 fb 41
       0.12945098 9.260677 31.432846 31.379436
0000f0 ee 0a 36 40 a6 57 af 3d 11 36 db 40 fd 68 a2 3f
       2.844417 0.085616395 6.85035 1.268829
000100 62 50 9c 3f 5a c7 4d 40 0e 08 44 3e b6 ad f8 3f
       1.2212031 3.2152925 0.19143698 1.9428012
000110 b3 b5 91 40 70 54 02 41 4d 27 90 40 f5 07 26 3e
       4.55343 8.145615 4.5047975 0.16213973
000120 95 4f d8 40 db 34 61 3e b6 02 fe 3d 16 0e 30 3f
       6.7597146 0.21992819 0.12402861 0.68771493
000130 6c f3 bc 3e 0c 98 e9 3f 39 9a 00 42 06 a2 0f 3e
       0.36904466 1.8249526 32.150608 0.14026651
000140 3c 8d c4 3e af 97 b5 3d af be 25 3e 0d 03 d5 3d
       0.38389003 0.08866822 0.16186021 0.104009725
000150 b2 27 45 3e ea 11 74 3e ce 34 30 41 e0 a7 36 3e
       0.19253424 0.23834959 11.012892 0.17837477
000160 57 5d 8a 3f f9 4d e6 3d 6d a2 0f 40 ab 99 15 3e
       1.0809735 0.11245341 2.2442887 0.14609401
000170 95 b3 83 3f 87 f6 72 40 3a 7b 75 40 a4 35 52 3e
       1.0289179 3.7962968 3.8356462 0.20528275
000180 2f b4 84 3e a9 3e 15 3f 8a 45 b1 3d 2a 81 20 3f
       0.2591872 0.58298737 0.08655842 0.6269709
000190 94 27 8c 3e 18 1b c9 3d 68 75 32 3e 9f 6f fb 41
       0.27373946 0.09819621 0.174276 31.429502
0001a0 b3 6f d6 3e 05 1e a4 3d db b7 b4 3e b9 aa cb 40
       0.41882095 0.08013538 0.3529652 6.36459
0001b0 89 fb d0 3d 27 f0 e3 3d 7c 33 47 3e 3c 35 fb 41
       0.102042265 0.1112979 0.19453233 31.400993
0001c0 24 e4 6a 41 1e dd ca 3e e9 0e ee 40 b3 59 6a 3e
       14.680698 0.39621824 7.43932 0.2288578
0001d0 85 4a 38 41 37 7b 02 3f 86 14 c0 3d bf f0 76 3f
       11.518193 0.5096926 0.093789145 0.964611
0001e0 74 a7 9c 41 3d e9 6e 3f 26 7c cf 3d 24 8c 45 3e
       19.581764 0.93324643 0.10131101 0.1929174
0001f0 2a 6b f1 3d 38 0f ea 40 f9 62 c3 3d 61 91 ff 41
       0.11788018 7.3143578 0.09540362 31.945986

sequential/batch_normalization_v1_1/batchnorm/sub f4 [128]
000000 ba 7f 20 bf 1d da 82 bf 53 2c 47 bc 6e c3 6a bf
       -0.62694895 -1.0222813 -0.012156564 -0.9170445
000010 5a 96 8b bf 43 89 2d bf 34 a9 5d bf b1 ab 29 bf
       -1.0905259 -0.6778757 -0.8658631 -0.66277605
000020 c3 69 f0 be b1 f4 28 bc 8d 63 9b bf 13 4b 41 bf
       -0.4695569 -0.010312245 -1.2139755 -0.7550518
000030 90 6b 74 bf af cf 53 c0 be ae 42 bf 52 c0 1b c0
       -0.9547663 -3.309551 -0.76047885 -2.4336133
000040 9a 7b 71 bf 9d d0 0c bf a0 1f f7 bc 4e 72 64 bd
       -0.94329226 -0.5500582 -0.030166447 -0.055773072
000050 9a d1 ed be 36 65 72 bf 36 04 3c c0 2d 90 20 bd
       -0.46448976 -0.94685686 -2.937757 -0.039199997
000060 54 6b 06 bf 19 31 32 bf 4f ad fa be 89 bb 9a bf
       -0.5250752 -0.6960617 -0.4896035 -1.2088481
000070 50 23 07 c0 91 b0 c6 bf ea 65 81 bf a3 35 a2 bf
       -2.1115303 -1.5522634 -1.0109227 -1.2672619
000080 0a 59 38 bf 56 c8 47 bf 62 22 0a bf ff c6 93 bf
       -0.7201086 -0.78040063 -0.53958714 -1.1545104
000090 5a aa 86 bf ca 90 cb be a8 01 84 be 97 00 b3 be
       -1.0520737 -0.39758903 -0.25782514 -0.34961388
0000a0 76 fa 22 bf 74 e5 8d bf c2 7e 60 bf 46 ed 81 bf
       -0.63663423 -1.1085649 -0.8769342 -1.0150535
0000b0 cb 41 66 3d 22 65 e5 be 30 29 1c bf ba ce 0a bf
       0.05621509 -0.4480372 -0.6100035 -0.5422169
0000c0 b0 31 81 bf 9e 49 c1 bf 04 11 78 bf 41 6f be bf
       -1.0093288 -1.5100591 -0.96900964 -1.4877702
0000d0 c9 07 f6 bf 6a 55 ca bf ca df a0 be 40 76 9d bf
       -1.9221126 -1.5807316 -0.31420738 -1.2301712
0000e0 1e 39 09 c0 ee 9a 81 be 7b c2 b6 3d 80 fe 13 3d
       -2.1441112 -0.25313514 0.08923813 0.036131382
0000f0 e2 de fb be 60 f3 f3 bf df b9 17 bf f7 e2 7e bf
       -0.49193484 -1.9058647 -0.5926799 -0.9956507
000100 f1 1b 66 bf 4b a6 37 bf 94 fa 98 bf 17 f3 2d be
       -0.89886385 -0.7173812 -1.195147 -0.16987263
000110 9a ac ca be 4c 8f 74 bf de 3d e4 be 48 d0 79 bf
       -0.3958481 -0.95531154 -0.4457845 -0.97583437
000120 a5 3b 44 bf a4 54 c7 bf 29 61 ec bf b4 7c 6f bf
       -0.7665351 -1.5572705 -1.8467151 -0.93549657
000130 59 cd 3d bf ca d3 12 bf 1b 56 60 3d 2f 37 c0 bf
       -0.7414146 -0.57354414 0.054769617 -1.5016841
000140 40 68 15 bf 18 28 0a c0 b1 db 9b bf 38 0c b1 bf
       -0.583622 -2.1586971 -1.217642 -1.3831854
000150 16 da b2 bf 3c 71 75 bf f1 20 32 bf 23 cc 9f bf
       -1.3972805 -0.95875907 -0.69581515 -1.2484173
000160 a6 2f 09 bf b4 47 e9 bf 16 79 12 bf 3e 24 c5 bf
       -0.5358833 -1.8225007 -0.5721601 -1.5401685
000170 c5 4e 1e bf 76 a9 0f bf c7 e0 0e bf da 91 7b bf
       -0.6183894 -0.5611795 -0.55811733 -0.98269427
000180 dd 58 95 bf ba 5d 33 bf d1 cc 3e c0 0f a6 02 bf
       -1.1667744 -0.7006489 -2.981251 -0.51034635
000190 53 e7 78 bf ca e2 dd bf 3c 93 85 bf 1b 62 62 be
       -0.9722797 -1.7334836 -1.0435557 -0.22107737
0001a0 09 e9 6c bf ff fe bf bf 73 21 83 bf 61 ff 6c bf
       -0.92543083 -1.4999694 -1.0244583 -0.9257718
0001b0 82 65 d9 bf 73 75 c5 bf 10 2f 81 bf 45 f4 dd 3c
       -1.6984103 -1.5426468 -1.0092487 0.027094016
0001c0 58 c0 82 be ed 0c 81 bf 3c 29 25 bf d5 21 a4 bf
       -0.25537372 -1.008207 -0.64516044 -1.2822825
0001d0 53 bb 0d bf ba 6f 1f bf ca 5a c1 bf 04 c7 4b bf
       -0.5536396 -0.62279856 -1.5105832 -0.7960055
0001e0 4f a2 0f bf d0 1e 52 bf 5c 0c f8 bf 26 59 6e bf
       -0.5610704 -0.82078266 -1.9378772 -0.9310478
0001f0 f8 fe b8 bf 03 c1 df be a1 88 c6 bf 96 c1 a0 3d
       -1.445281 -0.43701944 -1.5510446 0.078494236

sequential/batch_normalization_v1_2/batchnorm/mul f4 [128]
000000 ff 8a 9c 3f be c0 ba 3f ad d9 c8 3f 6d 8d 35 3f
       1.2229918 1.459007 1.5691429 0.70918924
000010 f2 97 90 3f fc 2f 77 3f 8d 69 a1 3f 3c 4f 9a 3f
       1.129637 0.96557593 1.2610337 1.205543
000020 54 36 d9 3f 2e ae 8d 3f 6b ec a7 3f 01 2e 7f 3f
       1.6969705 1.106878 1.3119024 0.9967957
000030 f5 49 74 3f f4 94 4b 3f 46 fe b0 3f ec de b7 3f
       0.9542535 0.7952416 1.3827598 1.4364905
000040 1f 81 a8 3f 04 5d 5c 3f 0e ff 83 3f f5 f3 d1 3f
       1.3164405 0.8607943 1.0312212 1.6402575
000050 06 da b0 3f fa fc a8 3f 42 b9 7c 3f 09 33 a5 3f
       1.3816535 1.3202202 0.9872018 1.29062
000060 31 b9 a5 3f df ed a3 3f 9d 7c 5e 3f cb dc 66 3f
       1.2947141 1.2806967 0.86908895 0.90180653
000070 cf 72 a3 3f ca e5 8c 3f b5 c1 99 3f 41 1b b0 3f
       1.2769412 1.1007626 1.201224 1.3758317
000080 de dd 8a 3f e2 89 ca 3f 4e be ca 3f 63 9a a2 3f
       1.0848958 1.5823328 1.5839326 1.2703365
000090 49 57 87 3f 56 5f a7 3f 75 7f 9d 3f 95 b0 93 3f
       1.0573512 1.3075969 1.2304522 1.1538264
0000a0 6c e6 8c 3f d9 07 4f 3f 09 16 9b 3f a8 63 8f 3f
       1.1007819 0.8087135 1.21161 1.1202288
0000b0 c8 3c ad 3f ed 61 a8 3f ad 98 9c 3f 19 7b 5f 3f
       1.3534174 1.3154885 1.2234093 0.8729721
0000c0 4f 3a 94 3f 2a e5 b2 3f 11 5f b8 3f bb 7a 79 3f
       1.1580294 1.3976185 1.4404012 0.97452897
0000d0 c8 9b 8c 3f 86 97 97 3f 05 c1 92 3f b9 51 ab 3f
       1.0985041 1.1843116 1.1465155 1.3384315
0000e0 96 b0 a4 3f 8e 3d 55 3f c4 68 4c 3f 20 61 88 3f
       1.286639 0.8329705 0.7984736 1.065464
0000f0 73 a6 69 3f 92 4c 87 3f 28 63 9c 3f ef 21 49 3f
       0.91269606 1.0570242 1.221776 0.78567404
000100 4a ed ae 3f 94 46 94 3f 38 38 8e 3f 91 d0 93 3f
       1.3666165 1.1584039 1.1110907 1.1548024
000110 b0 76 82 3f 9a cd aa 3f 5f a7 79 3f 55 e4 89 3f
       1.019247 1.3343995 0.97521013 1.0772806
000120 84 33 8b 3f 75 98 a6 3f 02 7b a2 3f b8 1e d4 3f
       1.0875096 1.3015276 1.2693789 1.6571875
000130 1a 35 b5 3f 50 9f 57 3f 3b 73 99 3f 68 c5 d5 3f
       1.415683 0.84227467 1.198829 1.6700869
000140 3a 0e a7 3f 00 a3 bd 3f 57 32 93 3f 5d 30 b0 3f
       1.3051217 1.4815369 1.1499738 1.3764759
000150 be 25 80 3f d8 3f 58 3f 5c e7 8c 3f 88 b2 bb 3f
       1.0011518 0.8447242 1.1008105 1.4663858
000160 2e 3a 9b 3f ba 39 fe 3f b3 4d 8f 3f 72 43 87 3f
       1.212713 1.9861367 1.1195587 1.0567458
000170 98 f1 ce 3f 8b ad 70 3f 0e 5c ac 3f f3 0f 52 3f
       1.6167479 0.94014806 1.3465593 0.82055587
000180 9c ea 83 3f 68 83 92 3f 97 f9 a2 3f 22 ef 4d 3f
       1.0305972 1.1446352 1.2732419 0.8044301
000190 d0 0b e2 3f 76 4e c2 3f 36 9a a2 3f f2 0a aa 3f
       1.7659855 1.5180194 1.2703311 1.328459
0001a0 15 92 91 3f a0 72 a2 3f d4 55 87 3f d2 17 82 3f
       1.1372706 1.2691231 1.0573068 1.0163519
0001b0 c9 12 8f 3f 69 c7 87 3f c8 e1 93 3f a8 95 a8 3f
       1.1177608 1.060773 1.1553278 1.3170671
0001c0 07 32 a9 3f 3f 95 79 3f 27 e5 b3 3f d7 36 8b 3f
       1.3218392 0.97493356 1.4054307 1.0876111
0001d0 ae da 6e 3f c1 9d 81 3f c6 e1 a6 3f 57 2e 80 3f
       0.9330243 1.0126268 1.303765 1.0014142
0001e0 79 8d cd 3f 53 32 ab 3f b1 f3 9f 3f ca bb 97 3f
       1.6058799 1.3374733 1.2496244 1.1854184
0001f0 77 e7 69 3f 0a b3 86 3f 66 73 8e 3f d4 99 94 3f
       0.9136881 1.0523388 1.1128967 1.1609445

sequential/batch_normalization_v1_2/batchnorm/sub f4 [128]
000000 0c 31 47 bf e1 f0 44 bf 8b 23 59 bf 85 15 33 bf
       -0.77809215 -0.7693005 -0.8481986 -0.6995471
000010 25 9e 25 bf 8b 51 5e bf 31 52 31 bf 32 9c 2a bf
       -0.64694434 -0.86843175 -0.6926604 -0.66644585
000020 3d 68 29 bf 4d 4a 4a bf cd 0a 1a bf d4 1a 39 bf
       -0.6617468 -0.79019624 -0.6017273 -0.7230656
000030 d7 49 44 bf 4a 86 55 bf 9a dc 57 bf b1 1e 58 bf
       -0.7667517 -0.83408034 -0.84320986 -0.8442183
000040 00 91 63 bf 09 5c 47 bf 1b fa 80 bf 5d e5 55 bf
       -0.8889313 -0.7787481 -1.0076326 -0.83553106
000050 74 e4 1b bf 5e c5 2d bf 1e 48 2b bf 2b d5 34 bf
       -0.60895467 -0.67879283 -0.6690692 -0.7063777
000060 9b e0 5a bf 73 d7 48 bf 19 1b 30 bf c6 b5 4c bf
       -0.8549897 -0.7845375 -0.6879135 -0.79964864
000070 44 f8 40 bf 31 44 82 bf ed ee 29 bf 4e d0 47 bf
       -0.75378823 -1.017706 -0.66380197 -0.7805222
000080 ad 46 69 bf 64 48 14 bf d4 ee 4e bf 20 cf 8b bf
       -0.9112347 -0.5792296 -0.8083317 -1.0922585
000090 18 8d 27 bf 81 73 83 bf b7 9b 39 bf c5 68 33 bf
       -0.65449667 -1.0269624 -0.72503227 -0.7008174
0000a0 e9 38 42 bf fa b3 37 bf 80 56 7c bf ec ff 43 bf
       -0.7586809 -0.71759 -0.9856949 -0.7656238
0000b0 dc d9 4f bf 71 45 24 bf e0 68 30 bf a2 50 49 bf
       -0.811918 -0.6416846 -0.68910027 -0.7863866
0000c0 e0 60 59 bf 83 eb 27 bf f8 70 46 bf 6f 51 50 bf
       -0.84913445 -0.6559374 -0.77516127 -0.8137426
0000d0 6f 06 1f bf ae 28 54 bf 5e e3 35 bf 62 b9 25 bf
       -0.6211919 -0.8287457 -0.7105006 -0.64735997
0000e0 dd 01 3a bf ec 50 24 bf d9 2f 4b bf e4 c4 65 bf
       -0.72659093 -0.64185977 -0.79369885 -0.89753556
0000f0 26 f3 65 bf 4e 9e 1a bf 35 06 58 bf 66 0c 25 bf
       -0.8982414 -0.60397804 -0.8438447 -0.64472044
000100 4a 31 14 bf c4 c9 57 bf f6 8b 13 bf 54 69 3f bf
       -0.5788771 -0.84292245 -0.5763544 -0.7477009
000110 b9 49 31 bf d1 4e 30 bf a9 0e 6c bf f9 fc 52 bf
       -0.69253117 -0.68870264 -0.9220987 -0.82417256
000120 92 01 14 bf 62 8e 44 bf 3c 48 3f bf 30 6a 50 bf
       -0.57814896 -0.7677976 -0.74719596 -0.8141203
000130 b7 6b 2a bf c3 77 31 bf 87 d5 1c bf 14 87 57 bf
       -0.6657061 -0.69323367 -0.61263317 -0.8419049
000140 54 5c 5f bf 72 6e 6d bf 33 1f 80 bf 3b 5d 6f bf
       -0.87250257 -0.9274665 -1.0009521 -0.93501633
000150 7e 13 42 bf 8d b1 3f bf 05 77 71 bf 81 9a 7e bf
       -0.7581099 -0.74880296 -0.94322234 -0.99454504
000160 c0 09 5d bf d8 9d 39 bf 0c b7 24 bf 7f 91 09 bf
       -0.86343 -0.72506475 -0.6434181 -0.53737634
000170 5d f1 3e bf a6 79 79 bf 3b 45 54 bf 48 8f 40 bf
       -0.7458704 -0.97451246 -0.8291814 -0.7521863
000180 8e 67 33 bf ec 4d 4f bf 74 1c 86 bf b9 f9 23 bf
       -0.70079887 -0.80978274 -1.0477433 -0.6405292
000190 be 13 3d bf 11 3f 37 bf 34 68 88 bf 76 45 44 bf
       -0.7385825 -0.71580607 -1.06568 -0.7666849
0001a0 74 70 3d bf 96 0c 3b bf 6c 17 6d bf ea de 65 bf
       -0.73999715 -0.7306608 -0.92613864 -0.89793265
0001b0 47 dd 40 bf 0e 53 47 bf 46 1e 1f bf 9a 7a 36 bf
       -0.7533764 -0.77861106 -0.6215557 -0.71280825
0001c0 64 9c 3c bf 68 66 4d bf 50 3d 3d bf a9 16 5e bf
       -0.73676133 -0.80234385 -0.7392168 -0.86753327
0001d0 25 c2 46 bf a0 5c 38 bf 26 00 4a bf db 55 4b bf
       -0.7763999 -0.72016335 -0.78906476 -0.7942788
0001e0 f3 eb 2e bf 00 39 48 bf cb e0 13 bf 35 5e 3d bf
       -0.6832878 -0.78211975 -0.5776488 -0.73971874
0001f0 53 ec 3b bf de a6 47 bf fd 0d 71 bf c4 5f 45 bf
       -0.7340748 -0.77988994 -0.9416197 -0.7709925

sequential/conv2d/Conv2D/ReadVariableOp i1 [64, 5, 5, 3] scale=0.0040706755 zero_point=0
000000 1a 05 ce 21 15 28 44 c2 ce 28 de 1b 29 fa 0e b6
       0.10583756 0.020353377 -0.20353377 0.13433228 0.085484184 0.16282701 0.27680594 -0.2523819 -0.20353377 0.16282701 -0.13840297 0.10990824 0.1668977 -0.024424054 0.056989457 -0.30122998
000010 f5 4d fd 5b f8 d2 1b 02 3e d6 ee 04 01 44 10 d0
       -0.04477743 0.31344202 -0.012212027 0.37043145 -0.032565404 -0.18725108 0.10990824 0.008141351 0.2523819 -0.17096837 -0.07327216 0.016282702 0.0040706755 0.27680594 0.06513081 -0.19539243
000020 32 ed 0a 4c 12 fe c3 5a 18 fc 13 27 1a 36 4f 10
       0.20353377 -0.07734283 0.040706754 0.30937132 0.07327216 -0.008141351 -0.2483112 0.36636078 0.097696215 -0.016282702 0.07734283 0.15875635 0.10583756 0.21981648 0.32158336 0.06513081
000030 ec 0c e6 b1 e2 dc 2b d5 29 1a 10 a5 d0 3c 3b bf
       -0.08141351 0.048848107 -0.10583756 -0.32158336 -0.12212026 -0.14654432 0.17503904 -0.17503904 0.1668977 0.10583756 0.06513081 -0.37043145 -0.19539243 0.24424052 0.24016985 -0.2645939
000040 ec b1 1b e0 26 be b2 db f0 ee 15 ff e7 27 39 43
       -0.08141351 -0.32158336 0.10990824 -0.13026161 0.15468566 -0.26866457 -0.3175127 -0.15061499 -0.06513081 -0.07327216 0.085484184 -0.0040706755 -0.101766884 0.15875635 0.2320285 0.27273527
000050 f1 fe 41 0c ee 02 f7 24 26 cb 3a c5 56 1e 0a 46
       -0.06106013 -0.008141351 0.2645939 0.048848107 -0.07327216 0.008141351 -0.03663608 0.14654432 0.15468566 -0.2157458 0.23609918 -0.24016985 0.35007808 0.12212026 0.040706754 0.28494728
000060 d3 ec e3 bb de 18 f0 f1 c3 c9 06 23 f7 07 fb 0a
       -0.18318039 -0.08141351 -0.11804959 -0.2808766 -0.13840297 0.097696215 -0.06513081 -0.06106013 -0.2483112 -0.22388715 0.024424054 0.14247364 -0.03663608 0.028494729 -0.020353377 0.040706754
000070 f8 1f f1 fc c7 d7 d8 dd 09 a1 fe 12 e6 f5 15 04
       -0.032565404 0.12619095 -0.06106013 -0.016282702 -0.2320285 -0.1668977 -0.16282701 -0.14247364 0.03663608 -0.38671416 -0.008141351 0.07327216 -0.10583756 -0.04477743 0.085484184 0.016282702
000080 b2 f3 0a 15 fc 24 02 0e ff bd 06 0d 03 1a db f8
       -0.3175127 -0.05291878 0.040706754 0.085484184 -0.016282702 0.14654432 0.008141351 0.056989457 -0.0040706755 -0.27273527 0.024424054 0.05291878 0.012212027 0.10583756 -0.15061499 -0.032565404
000090 1f 0f 3d fa 25 14 24 ba 07 5a 39 3b e5 ff 0a 14
       0.12619095 0.06106013 0.2483112 -0.024424054 0.15061499 0.08141351 0.14654432 -0.28494728 0.028494729 0.36636078 0.2320285 0.24016985 -0.10990824 -0.0040706755 0.040706754 0.08141351
0000a0 f2 1b b8 f2 16 fc 29 bf 29 2c 4c f7 34 09 e2 33
       -0.056989457 0.10990824 -0.29308864 -0.056989457 0.08955486 -0.016282702 0.1668977 -0.2645939 0.1668977 0.17910972 0.30937132 -0.03663608 0.21167512 0.03663608 -0.12212026 0.20760445
0000b0 27 37 f3 10 28 1f 9d c3 da 23 b7 10 47 f7 03 f0
       0.15875635 0.22388715 -0.05291878 0.06513081 0.16282701 0.12619095 -0.40299687 -0.2483112 -0.15468566 0.14247364 -0.2971593 0.06513081 0.28901795 -0.03663608 0.012212027 -0.06513081
0000c0 df 27 d4 fe f0 c6 1b 36 d6 cb 0a 31 1e 38 f8 d6
       -0.13433228 0.15875635 -0.17910972 -0.008141351 -0.06513081 -0.23609918 0.10990824 0.21981648 -0.17096837 -0.2157458 0.040706754 0.1994631 0.12212026 0.22795783 -0.032565404 -0.17096837
0000d0 bf f6 22 b2 8f e2 f4 bb 04 0c fa ac 2b ed 15 06
       -0.2645939 -0.040706754 0.13840297 -0.3175127 -0.45998633 -0.12212026 -0.048848107 -0.2808766 0.016282702 0.048848107 -0.024424054 -0.34193674 0.17503904 -0.07734283 0.085484184 0.024424054
0000e0 1b cd ed ff 45 ab c4 08 c8 45 cb 0a 13 d8 ea f5
       0.10990824 -0.20760445 -0.07734283 -0.0040706755 0.2808766 -0.3460074 -0.24424052 0.032565404 -0.22795783 0.2808766 -0.2157458 0.040706754 0.07734283 -0.16282701 -0.08955486 -0.04477743
0000f0 4b cb 25 11 4b ff 3c 0c f3 f9 15 dd a7 f6 c2 df
       0.30530065 -0.2157458 0.15061499 0.069201484 0.30530065 -0.0040706755 0.24424052 0.048848107 -0.05291878 -0.028494729 0.085484184 -0.14247364 -0.3622901 -0.040706754 -0.2523819 -0.13433228

sequential/conv2d/Conv2D_bias f4 [64]
000000 7d 84 0c be 17 24 d8 3a c4 1a b1 bb c0 fb 4f bc
       -0.13722415 0.0016490248 -0.005404802 -0.012694299
000010 30 4f 34 3d 0c 73 46 bd a1 17 d7 3b df 87 bb 3c
       0.04402083 -0.04844956 0.006564096 0.022891937
000020 79 b4 16 3d 71 79 23 3d d2 d2 03 be 0b 1b ab bc
       0.036793206 0.039910737 -0.1287339 -0.020886919
000030 3a a5 d2 bd 15 7a 1a bc 8b c9 84 3c d2 23 f2 bc
       -0.10285421 -0.009428521 0.016209384 -0.029558096
000040 d9 09 fc bb 80 d3 73 3a b5 f8 cc 3c 4b 34 55 ba
       -0.0076916036 0.00093012303 0.025020937 -0.00081330974
000050 6d 00 fc bd e9 0d ae bd a0 0d 2a 3d cb 3b bf bb
       -0.12304769 -0.08498747 0.0415169 -0.0058359853
000060 c5 0d df 3c 61 a9 dc 3a 52 f9 96 bb 90 4f 70 ba
       0.027228246 0.0016835147 -0.004607358 -0.0009167129
000070 77 5a 2b 3b 58 a0 bc bd 1b 0d 72 3d d0 15 93 bd
       0.002614645 -0.09210271 0.05909453 -0.07181895
000080 f9 ec 00 3d 3d c9 89 3d d1 35 79 3b ee a2 09 bd
       0.031475995 0.06727836 0.0038026462 -0.033602647
000090 0f cf b5 3c d6 87 0d be b3 35 ec b9 02 8e 43 3d
       0.02219346 -0.13821349 -0.00045053437 0.04774285
0000a0 ed b8 c9 3c a3 a4 9e bd 62 f6 9e ba a1 3e ea bc
       0.024624312 -0.07746246 -0.0012127871 -0.028594317
0000b0 a5 07 8c bd 62 16 4b bd a5 10 5b bd 59 85 7f 3c
       -0.068373956 -0.049581893 -0.05348267 0.015595757
0000c0 be 9b 8b bd a2 95 65 bc e1 e9 8f bd ee c7 15 3d
       -0.06816815 -0.014012726 -0.07027031 0.03656762
0000d0 e9 6d dd 3c 00 8c ed 3b 98 86 d5 3b c3 b3 81 bb
       0.027029948 0.0072493553 0.006516289 -0.003958197
0000e0 74 b8 7d 3c 4c 9d 2c bc cd 92 82 bb 5c e6 22 bc
       0.015485872 -0.010535549 -0.003984785 -0.009942617
0000f0 89 06 53 3a 72 ef fd bb 85 c7 98 3c 25 99 2d 3c
       0.0008049985 -0.0077494914 0.018649826 0.0105955945

sequential/conv2d_1/Conv2D/ReadVariableOp i1 [64, 5, 5, 64] scale=0.0032501705 zero_point=0
000000 fa ec 02 df fc ff 0f 12 f2 0c 16 dd fd 0e 02 f6
       -0.019501023 -0.06500341 0.006500341 -0.10725562 -0.013000682 -0.0032501705 0.048752557 0.05850307 -0.045502387 0.039002046 0.07150375 -0.11375597 -0.0097505115 0.045502387 0.006500341 -0.032501705
000010 05 fd 0d 12 14 fb fd fa ec 05 e1 0e 0a f3 09 0d
       0.016250852 -0.0097505115 0.042252216 0.05850307 0.06500341 -0.016250852 -0.0097505115 -0.019501023 -0.06500341 0.016250852 -0.10075529 0.045502387 0.032501705 -0.042252216 0.029251534 0.042252216
000020 fc f0 f0 fc f1 2c ef 15 ed f8 16 c9 aa f9 0e ea
       -0.013000682 -0.052002728 -0.052002728 -0.013000682 -0.048752557 0.1430075 -0.0552529 0.06825358 -0.06175324 -0.026001364 0.07150375 -0.17875938 -0.27951467 -0.022751193 0.045502387 -0.07150375
000030 fd fe 0d 08 02 00 ff 0e da 0b d8 fb f2 e9 0d f4
       -0.0097505115 -0.006500341 0.042252216 0.026001364 0.006500341 0.0 -0.0032501705 0.045502387 -0.12350648 0.035751875 -0.13000682 -0.016250852 -0.045502387 -0.074753925 0.042252216 -0.039002046
000040 03 ee 1a 03 fb fb 02 19 24 15 06 04 15 0e e0 16
       0.0097505115 -0.05850307 0.08450443 0.0097505115 -0.016250852 -0.016250852 0.006500341 0.08125426 0.11700614 0.06825358 0.019501023 0.013000682 0.06825358 0.045502387 -0.104005456 0.07150375
000050 dc fd 1e 01 08 f3 03 04 f5 f8 db 00 f9 02 03 ec
       -0.11700614 -0.0097505115 0.097505115 0.0032501705 0.026001364 -0.042252216 0.0097505115 0.013000682 -0.035751875 -0.026001364 -0.120256305 0.0 -0.022751193 0.006500341 0.0097505115 -0.06500341
000060 ef df e9 e4 f7 2b f7 14 de de 02 d9 92 f3 fa e2
       -0.0552529 -0.10725562 -0.074753925 -0.091004774 -0.029251534 0.13975734 -0.029251534 0.06500341 -0.1105058 -0.1105058 0.006500341 -0.12675665 -0.35751876 -0.042252216 -0.019501023 -0.097505115
000070 09 01 08 fc f5 ef 0d 07 f0 21 f9 f0 01 d3 ee fd
       0.029251534 0.0032501705 0.026001364 -0.013000682 -0.035751875 -0.0552529 0.042252216 0.022751193 -0.052002728 0.10725562 -0.022751193 -0.052002728 0.0032501705 -0.14625767 -0.05850307 -0.0097505115
000080 01 fe 10 fa fb f0 18 00 43 0a f5 11 ec 0f e7 00
       0.0032501705 -0.006500341 0.052002728 -0.019501023 -0.016250852 -0.052002728 0.07800409 0.0 0.21776143 0.032501705 -0.035751875 0.0552529 -0.06500341 0.048752557 -0.08125426 0.0
000090 f6 03 09 04 0c 01 e8 05 f5 ed dc 05 f4 02 09 df
       -0.032501705 0.0097505115 0.029251534 0.013000682 0.039002046 0.0032501705 -0.07800409 0.016250852 -0.035751875 -0.06175324 -0.11700614 0.016250852 -0.039002046 0.006500341 0.029251534 -0.10725562
0000a0 e2 d8 03 e9 0a 2a e5 fa d3 f2 0a dc 9c 0a 08 df
       -0.097505115 -0.13000682 0.0097505115 -0.074753925 0.032501705 0.13650715 -0.08775461 -0.019501023 -0.14625767 -0.045502387 0.032501705 -0.11700614 -0.32501704 0.032501705 0.026001364 -0.10725562
0000b0 01 05 0e ef 01 de 05 fc dc 0a ff 01 10 f5 ed 03
       0.0032501705 0.016250852 0.045502387 -0.0552529 0.0032501705 -0.1105058 0.016250852 -0.013000682 -0.11700614 0.032501705 -0.0032501705 0.0032501705 0.052002728 -0.035751875 -0.06175324 0.0097505115
0000c0 f3 f5 f7 fa 04 e9 08 fb 1f f9 04 1b fd 04 fa 10
       -0.042252216 -0.035751875 -0.029251534 -0.019501023 0.013000682 -0.074753925 0.026001364 -0.016250852 0.10075529 -0.022751193 0.013000682 0.08775461 -0.0097505115 0.013000682 -0.019501023 0.052002728
0000d0 ec da 05 0d f3 f5 dc ff dd 08 e2 1e e9 fc fa dd
       -0.06500341 -0.12350648 0.016250852 0.042252216 -0.042252216 -0.035751875 -0.11700614 -0.0032501705 -0.11375597 0.026001364 -0.097505115 0.097505115 -0.074753925 -0.013000682 -0.019501023 -0.11375597
0000e0 fb e5 eb f4 0d 1c fd fb e9 f1 12 f9 c4 06 f8 e0
       -0.016250852 -0.08775461 -0.06825358 -0.039002046 0.042252216 0.091004774 -0.0097505115 -0.016250852 -0.074753925 -0.048752557 0.05850307 -0.022751193 -0.19501023 0.019501023 -0.026001364 -0.104005456
0000f0 fd fa 10 00 f8 d8 18 1d f2 08 f6 ef ec da 0b 01
       -0.0097505115 -0.019501023 0.052002728 0.0 -0.026001364 -0.13000682 0.07800409 0.09425494 -0.045502387 0.026001364 -0.032501705 -0.0552529 -0.06500341 -0.12350648 0.035751875 0.0032501705

sequential/conv2d_1/Conv2D_bias f4 [64]
000000 79 4e c7 3c 2e ee 56 bb 8b 3e 6a bb 0e 95 ba 3d
       0.02432941 -0.0032795775 -0.0035742845 0.09110461
000010 bd 9b f6 3d 6c 7b 20 3d 95 84 41 3b 63 a9 0a bc
       0.120414235 0.039180204 0.0029528488 -0.0084632365
000020 9e cf 48 3d 11 86 ab bd 37 90 4b 3c ca 1a dc 3b
       0.049026124 -0.083751805 0.01242452 0.0067170607
000030 7e 56 38 3d bc 1e ff 3c f6 50 2b 3d 95 26 51 bd
       0.04500436 0.031142585 0.041825257 -0.051062185
000040 ba e5 11 3d 27 e1 46 bd 05 50 3d be 35 63 f4 ba
       0.035619475 -0.048554566 -0.18487556 -0.0018645289
000050 f5 8c c5 bb 83 50 08 bc 7b 55 de 3d e3 71 fc 3c
       -0.0060287663 -0.008319977 0.10856148 0.030816024
000060 0e ff 6d 3d 29 e4 47 bc 5c 1f a6 3d ec 3e c9 bb
       0.058104567 -0.012200394 0.0811145 -0.006141534
000070 e9 62 21 3c 4b 21 c3 bd a5 45 f4 bb 9d 00 9d bd
       0.009850242 -0.095278345 -0.0074545913 -0.076661326
000080 ca ff 56 3d 2f 63 93 bc 76 49 00 3d 15 02 e7 3a
       0.052490033 -0.01799163 0.031320058 0.0017624522
000090 5e 3b b3 bc 81 6d b5 3c 7b b9 fd bb cc 53 6c 3d
       -0.021878894 0.022146942 -0.0077430583 0.057697102
0000a0 67 c9 dd bc 0d 60 28 bd 52 60 2d 3c 7a f6 95 3d
       -0.027073575 -0.041107226 0.010582047 0.07322402
0000b0 4d 8d 0f 3d 17 c9 a2 bc ad 1f 5d 3c 25 15 c3 bc
       0.035046864 -0.019871278 0.013496322 -0.023813793
0000c0 b2 59 4b 3c aa b5 0f 3d 3b b8 1d 3d 84 71 13 bc
       0.012411522 0.035085358 0.038505774 -0.008999232
0000d0 d4 bc 5e bb d8 c9 8c 3d a0 85 72 3d b0 3a 71 bc
       -0.0033987062 0.06874436 0.059209466 -0.014723465
0000e0 ca 80 66 3c 31 77 84 bd a2 dd 12 bd 3a de f3 3d
       0.014068792 -0.064680465 -0.035855897 0.11907621
0000f0 62 65 a3 bc 47 9a e5 bd c6 f3 99 3d 7c 69 82 3c
       -0.019945804 -0.11211067 0.07517199 0.01591944

sequential/conv2d_2/Conv2D/ReadVariableOp i1 [128, 5, 5, 64] scale=0.0025937452 zero_point=0
000000 eb 1b 09 14 e4 0c fd 0e 09 09 15 20 d7 08 f8 12
       -0.05446865 0.07003112 0.023343707 0.051874906 -0.07262487 0.031124942 -0.0077812355 0.036312435 0.023343707 0.023343707 0.05446865 0.08299985 -0.10634355 0.020749962 -0.020749962 0.046687413
000010 02 0e 07 e7 f7 fb 02 e7 67 f2 30 06 2b ed 22 f6
       0.0051874905 0.036312435 0.018156217 -0.06484363 -0.023343707 -0.012968726 0.0051874905 -0.06484363 0.26715577 -0.036312435 0.12449977 0.015562471 0.11153105 -0.04928116 0.08818734 -0.025937453
000020 20 02 17 0a ea 06 11 27 04 e2 f9 ff e7 ee 0f 07
       0.08299985 0.0051874905 0.05965614 0.025937453 -0.057062395 0.015562471 0.04409367 0.10115606 0.010374981 -0.07781236 -0.018156217 -0.0025937452 -0.06484363 -0.046687413 0.03890618 0.018156217
000030 33 f4 1b eb 03 d1 24 e4 0a fb eb f1 fa 09 e6 e7
       0.132281 -0.031124942 0.07003112 -0.05446865 0.0077812355 -0.12190603 0.093374826 -0.07262487 0.025937453 -0.012968726 -0.05446865 -0.03890618 -0.015562471 0.023343707 -0.06743737 -0.06484363
000040 e8 e8 09 0f f2 00 ff fe 11 eb fd 10 e0 12 ee f8
       -0.062249884 -0.062249884 0.023343707 0.03890618 -0.036312435 0.0 -0.0025937452 -0.0051874905 0.04409367 -0.05446865 -0.0077812355 0.041499924 -0.08299985 0.046687413 -0.046687413 -0.020749962
000050 1d f9 1e ee 0f ef 0c 0b 54 06 31 ee 01 f9 00 fe
       0.07521861 -0.018156217 0.07781236 -0.046687413 0.03890618 -0.04409367 0.031124942 0.028531197 0.2178746 0.015562471 0.12709352 -0.046687413 0.0025937452 -0.018156217 0.0 -0.0051874905
000060 32 06 1d fe 04 16 05 0a 15 e4 f6 f6 ef 06 17 1b
       0.12968726 0.015562471 0.07521861 -0.0051874905 0.010374981 0.057062395 0.012968726 0.025937453 0.05446865 -0.07262487 -0.025937453 -0.025937453 -0.04409367 0.015562471 0.05965614 0.07003112
000070 24 eb 23 ff 0c cc f6 ef fb dc 05 d0 f0 cf 16 ef
       0.093374826 -0.05446865 0.090781085 -0.0025937452 0.031124942 -0.13487475 -0.025937453 -0.04409367 -0.012968726 -0.093374826 0.012968726 -0.12449977 -0.041499924 -0.12709352 0.057062395 -0.04409367
000080 f4 06 fb 0a 04 15 03 22 17 d7 1c 04 e0 21 fc 0b
       -0.031124942 0.015562471 -0.012968726 0.025937453 0.010374981 0.05446865 0.0077812355 0.08818734 0.05965614 -0.10634355 0.07262487 0.010374981 -0.08299985 0.085593596 -0.010374981 0.028531197
000090 fd 08 29 dc fe ff f6 07 2e 02 1e f3 05 d6 0f 11
       -0.0077812355 0.020749962 0.10634355 -0.093374826 -0.0051874905 -0.0025937452 -0.025937453 0.018156217 0.11931228 0.0051874905 0.07781236 -0.033718687 0.012968726 -0.1089373 0.03890618 0.04409367
0000a0 41 0f 2d ff f8 fa 0b f7 fe f7 d7 04 04 06 01 01
       0.16859344 0.03890618 0.11671854 -0.0025937452 -0.020749962 -0.015562471 0.028531197 -0.023343707 -0.0051874905 -0.023343707 -0.10634355 0.010374981 0.010374981 0.015562471 0.0025937452 0.0025937452
0000b0 05 f2 3d 14 ec cf 0e f1 ff fe f4 f5 eb db 18 e5
       0.012968726 -0.036312435 0.15821846 0.051874906 -0.051874906 -0.12709352 0.036312435 -0.03890618 -0.0025937452 -0.0051874905 -0.031124942 -0.028531197 -0.05446865 -0.095968574 0.062249884 -0.07003112
0000c0 f7 f9 08 10 ef 16 f6 1c 10 fa 10 1a dd 13 fd ec
       -0.023343707 -0.018156217 0.020749962 0.041499924 -0.04409367 0.057062395 -0.025937453 0.07262487 0.041499924 -0.015562471 0.041499924 0.06743737 -0.090781085 0.04928116 -0.0077812355 -0.051874906
0000d0 0e 03 14 da fb 00 f5 0d 05 f9 19 fc 0c d6 0d 0b
       0.036312435 0.0077812355 0.051874906 -0.09856232 -0.012968726 0.0 -0.028531197 0.033718687 0.012968726 -0.018156217 0.06484363 -0.010374981 0.031124942 -0.1089373 0.033718687 0.028531197
0000e0 1a 1f 17 03 19 14 23 f7 ee 15 df 1e e3 35 f4 12
       0.06743737 0.0804061 0.05965614 0.0077812355 0.06484363 0.051874906 0.090781085 -0.023343707 -0.046687413 0.05446865 -0.085593596 0.07781236 -0.07521861 0.1374685 -0.031124942 0.046687413
0000f0 27 ec 38 ff e1 eb f6 e3 1b f9 18 cf 0e d6 ef f2
       0.10115606 -0.051874906 0.14524974 -0.0025937452 -0.0804061 -0.05446865 -0.025937453 -0.07521861 0.07003112 -0.018156217 0.062249884 -0.12709352 0.036312435 -0.1089373 -0.04409367 -0.036312435

sequential/conv2d_2/Conv2D_bias f4 [128]
000000 c2 c6 16 bd 23 0e 47 bd 9c 2a 12 bd c6 4e 34 bd
       -0.036810644 -0.048597466 -0.035685167 -0.044020437
000010 6e 20 8a bc 51 78 1d bd 68 ad 7a bd de fb 62 bd
       -0.016861167 -0.03844482 -0.06120053 -0.05541598
000020 34 1f 25 bd 95 37 ce bc 25 fa cb bd 03 17 9c bd
       -0.04031296 -0.025172988 -0.09959821 -0.07621577
000030 41 b8 1c bd d5 49 8b bc b4 5d fd bd a0 c8 27 bd
       -0.038261656 -0.01700298 -0.12371388 -0.040962815
000040 99 11 50 3b 5b 26 80 bd 02 7f ac bd 3f 05 d2 bb
       0.003174877 -0.06257316 -0.08422662 -0.006409317
000050 77 0f 81 bd b9 e5 cd bd e5 ac a5 bd 2a e5 91 bd
       -0.06301778 -0.10053582 -0.08089618 -0.07123788
000060 36 b2 20 bd 40 44 51 bd 66 af 55 bd 1e d0 6d bd
       -0.039232455 -0.05109048 -0.052169226 -0.058059804
000070 72 65 1c bd 26 06 a0 bd 5c d1 7d bd 44 b0 86 bd
       -0.038182683 -0.07813673 -0.06196724 -0.06576589
000080 1b 53 d7 bc db 22 81 bb 72 28 01 bd 7e 6a ab bc
       -0.026284745 -0.0039409227 -0.031532712 -0.020924803
000090 8f a0 87 bd b1 b9 41 bd 05 59 5f bd 76 4e 1c bd
       -0.06622421 -0.04729623 -0.054528255 -0.038160764
0000a0 2f 9f 7a 3b ed c6 2c bd 35 c5 82 bd c7 2b 5d bd
       0.0038241853 -0.042181898 -0.063852705 -0.053996827
0000b0 5b c2 00 bd c3 e9 2e bd ad bd 9d bd e5 64 dc bd
       -0.03143535 -0.0427034 -0.077021934 -0.107614316
0000c0 81 92 bd bd c5 63 cc bd 82 be 7b bc e5 e5 d8 bd
       -0.09256459 -0.09979967 -0.015365245 -0.10590724
0000d0 b7 a9 2f bd 58 54 38 bd 43 d7 4d bd 77 b2 e9 bd
       -0.042886462 -0.04500231 -0.050254118 -0.114109926
0000e0 b9 ac b8 bd 35 20 99 bd 5c 5d 43 bd 41 f7 9c bd
       -0.09017319 -0.07476846 -0.047696456 -0.076643474
0000f0 dc 40 27 bd 35 63 b1 bc aa b0 46 bd 75 4a 62 ba
       -0.04083334 -0.02165375 -0.048508324 -0.0008632311
000100 97 2f c7 bd 53 0f c0 bd 9c 0b 42 bd f5 e8 f8 bb
       -0.09725874 -0.09377923 -0.047374353 -0.00759613
000110 2f 90 96 bd 9b 8a a0 bd db b5 0a be 75 15 8c bd
       -0.073517196 -0.07838937 -0.13545935 -0.0684003
000120 cf 68 bf bc 8f 98 b5 bd 83 06 aa bd ea 00 a1 bd
       -0.023365406 -0.08866989 -0.08302023 -0.078615025
000130 ff 43 42 bd 61 d5 f6 bc 6f 28 86 bd 87 65 dc bd
       -0.047428127 -0.030131044 -0.06550681 -0.10761552
000140 ce e0 88 bd a6 5b 1a bd 17 8e 14 bd 48 ce 8c bd
       -0.06683503 -0.03768506 -0.03626832 -0.068752825
000150 20 73 cf bd 10 3e a7 bd f2 bb a4 bd ef db 6a bd
       -0.1012938 -0.08166134 -0.0804366 -0.05733865
000160 82 7c 35 be 8a 53 43 bd 2e ba 6a bd 0c d0 7b 3c
       -0.17723277 -0.04768709 -0.05730646 0.015369426
000170 63 53 a4 bd c5 10 b7 bd e1 19 ba bc 55 ed b2 bd
       -0.08023717 -0.089387454 -0.022717418 -0.08736674
000180 60 b1 d9 bb ed ed c6 bd d5 0c 8e bd 08 88 81 bd
       -0.006643459 -0.097133495 -0.06936041 -0.06324774
000190 3a 32 2d bd 26 33 d5 bc 37 51 38 bd 22 11 af bd
       -0.042284228 -0.026025366 -0.044999328 -0.0854819
0001a0 01 bf 24 bd da ee 3f bd b9 37 37 bd 9a c2 a3 bd
       -0.040221218 -0.046858646 -0.044730876 -0.07996102
0001b0 03 c7 09 bd 9f 84 83 bd ac d1 24 bd 0c 1e 40 bd
       -0.033637058 -0.0642178 -0.04023902 -0.046903655
0001c0 43 f5 fd bc 5d b2 e4 bd 13 00 92 bd 01 3c 97 bd
       -0.031000739 -0.111668326 -0.071289204 -0.07384492
0001d0 65 a9 56 bd fc 1d 7f bd 06 9c 63 bd 43 4b 40 bd
       -0.05240764 -0.062284455 -0.055568717 -0.046946775
0001e0 62 0e c8 3b 2b 5c 5b bd 7e 56 97 bd 86 6d b4 bc
       0.00610523 -0.053554695 -0.07389544 -0.022024881
0001f0 76 c4 05 be 10 b5 56 bd 1d be 27 bd fe 3c 40 bd
       -0.13063225 -0.05241877 -0.04095279 -0.046933167

sequential/conv2d_3/Conv2D/ReadVariableOp i1 [128, 5, 5, 128] scale=0.0021665462 zero_point=0
000000 e3 d8 0e 15 20 04 27 01 10 ff f4 02 11 db 09 c7
       -0.06282984 -0.086661845 0.030331647 0.04549747 0.06932948 0.008666185 0.0844953 0.0021665462 0.03466474 -0.0021665462 -0.025998555 0.0043330924 0.036831286 -0.08016221 0.019498916 -0.123493135
000010 14 f9 f9 e2 df f6 f9 f3 02 11 07 0b e1 0c ea fd
       0.043330923 -0.0151658235 -0.0151658235 -0.064996384 -0.071496025 -0.021665461 -0.0151658235 -0.0281651 0.0043330924 0.036831286 0.0151658235 0.023832008 -0.06716293 0.025998555 -0.047664016 -0.006499639
000020 f4 1e e5 fe 0b e3 ee ff fc 1a 08 cb 00 f5 06 08
       -0.025998555 0.064996384 -0.058496747 -0.0043330924 0.023832008 -0.06282984 -0.038997833 -0.0021665462 -0.008666185 0.0563302 0.01733237 -0.11482695 0.0 -0.023832008 0.012999278 0.01733237
000030 11 07 eb 21 06 f9 e7 e3 f0 dc 1e fc de e7 e6 fa
       0.036831286 0.0151658235 -0.04549747 0.071496025 0.012999278 -0.0151658235 -0.054163653 -0.06282984 -0.03466474 -0.077995665 0.064996384 -0.008666185 -0.07366257 -0.054163653 -0.0563302 -0.012999278
000040 2e e0 f2 ea f8 03 ff 0a fa 04 17 e6 f9 fe ff ef
       0.09966113 -0.06932948 -0.030331647 -0.047664016 -0.01733237 0.006499639 -0.0021665462 0.021665461 -0.012999278 0.008666185 0.049830563 -0.0563302 -0.0151658235 -0.0043330924 -0.0021665462 -0.036831286
000050 f3 fd fd 0a 10 07 0a 0e e4 ea 08 0c 10 e3 e3 d9
       -0.0281651 -0.006499639 -0.006499639 0.021665461 0.03466474 0.0151658235 0.021665461 0.030331647 -0.060663294 -0.047664016 0.01733237 0.025998555 0.03466474 -0.06282984 -0.06282984 -0.0844953
000060 db 0e e7 0f e3 e5 07 17 fc 01 fb e4 0e f0 17 de
       -0.08016221 0.030331647 -0.054163653 0.032498192 -0.06282984 -0.058496747 0.0151658235 0.049830563 -0.008666185 0.0021665462 -0.010832731 -0.060663294 0.030331647 -0.03466474 0.049830563 -0.07366257
000070 e8 26 00 05 e7 df 0b 10 fe ee 03 fb fa dc 04 02
       -0.05199711 0.08232875 0.0 0.010832731 -0.054163653 -0.071496025 0.023832008 0.03466474 -0.0043330924 -0.038997833 0.006499639 -0.010832731 -0.012999278 -0.077995665 0.008666185 0.0043330924
000080 e9 e7 05 25 02 1d 37 f6 01 00 10 0d 08 f1 0b b4
       -0.049830563 -0.054163653 0.010832731 0.08016221 0.0043330924 0.06282984 0.11916004 -0.021665461 0.0021665462 0.0 0.03466474 0.0281651 0.01733237 -0.032498192 0.023832008 -0.1646575
000090 18 fe 05 f1 ed 02 fd e1 fc 0a d9 fa e3 ed 04 04
       0.05199711 -0.0043330924 0.010832731 -0.032498192 -0.041164376 0.0043330924 -0.006499639 -0.06716293 -0.008666185 0.021665461 -0.0844953 -0.012999278 -0.06282984 -0.041164376 0.008666185 0.008666185
0000a0 ea 03 e4 ea 06 06 f7 f9 10 fe f8 dc f0 f9 ed 15
       -0.047664016 0.006499639 -0.060663294 -0.047664016 0.012999278 0.012999278 -0.019498916 -0.0151658235 0.03466474 -0.0043330924 -0.01733237 -0.077995665 -0.03466474 -0.0151658235 -0.041164376 0.04549747
0000b0 15 09 f6 36 09 0a 18 f7 ef e6 0b ed ec eb de dc
       0.04549747 0.019498916 -0.021665461 0.116993494 0.019498916 0.021665461 0.05199711 -0.019498916 -0.036831286 -0.0563302 0.023832008 -0.041164376 -0.043330923 -0.04549747 -0.07366257 -0.077995665
0000c0 1d d4 f1 f4 f8 f8 ff 13 fe 23 fb f5 e5 02 06 05
       0.06282984 -0.09532803 -0.032498192 -0.025998555 -0.01733237 -0.01733237 -0.0021665462 0.041164376 -0.0043330924 0.07582912 -0.010832731 -0.023832008 -0.058496747 0.0043330924 0.012999278 0.010832731
0000d0 0f ea f1 12 04 fb 26 12 dd f9 f1 19 e9 12 f6 df
       0.032498192 -0.047664016 -0.032498192 0.038997833 0.008666185 -0.010832731 0.08232875 0.038997833 -0.07582912 -0.0151658235 -0.032498192 0.054163653 -0.049830563 0.038997833 -0.021665461 -0.071496025
0000e0 fa fb e3 26 d5 e2 fb 0a f4 0f fd ea 06 fb 09 da
       -0.012999278 -0.010832731 -0.06282984 0.08232875 -0.093161486 -0.064996384 -0.010832731 0.021665461 -0.025998555 0.032498192 -0.006499639 -0.047664016 0.012999278 -0.010832731 0.019498916 -0.08232875
0000f0 e8 1e 0b 03 e5 ed 0b 2f e7 f0 fd f2 dd f5 06 ef
       -0.05199711 0.064996384 0.023832008 0.006499639 -0.058496747 -0.041164376 0.023832008 0.10182767 -0.054163653 -0.03466474 -0.006499639 -0.030331647 -0.07582912 -0.023832008 0.012999278 -0.036831286

sequential/conv2d_3/Conv2D_bias f4 [128]
000000 12 c9 0a bc 0d 3a 5e 3d e6 2e 26 bc 02 ef 0e bc
       -0.00847079 0.05425458 -0.010143017 -0.008723976
000010 5f 52 6a 3d ff aa 60 3b 06 89 8b bd ce 53 07 3c
       0.05720746 0.003428161 -0.068132445 0.008259727
000020 46 5f 12 3c cd 83 c4 bb 42 c8 24 bd 25 de 7d bc
       0.008933848 -0.005997157 -0.040230043 -0.015494858
000030 aa 25 00 bc 07 83 e3 3c 2a 9f c5 bb ec 83 8c 3c
       -0.00782148 0.02777244 -0.0060309367 0.017152749
000040 9c b7 55 bd 5a 2d 93 3c 34 f8 ab bb 5e c0 fa ba
       -0.052177057 0.017965961 -0.005248094 -0.0019130816
000050 91 f4 71 3d f1 78 a4 3c 82 84 8e 3c 0d 1a b6 bc
       0.059071127 0.0200772 0.017397169 -0.022229219
000060 86 5b 77 3d 19 8d 80 3a 39 68 27 3d fd 7c fd bb
       0.060390018 0.0009807675 0.04087088 -0.007735847
000070 e2 91 b1 3c 15 2f 64 bc a8 23 1a 3d c5 ee 0f bd
       0.021676008 -0.013927241 0.03763166 -0.035139818
000080 cf e6 6b bd 63 76 18 3a e7 46 09 3c 41 c3 8c bc
       -0.057593163 0.0005815981 0.008378721 -0.017182948
000090 83 74 52 bd 2c 1f 68 bd bc 99 c9 bb b5 e7 3e bd
       -0.051380645 -0.056670353 -0.00615236 -0.04660769
0000a0 45 05 7a bc a6 75 16 3d 17 55 fc 3c 41 2c 0c bd
       -0.015260045 0.036733292 0.030802293 -0.03422189
0000b0 e9 89 b4 bb 61 ae 9a bd 70 b2 e0 bc 04 3c 94 bc
       -0.0055096042 -0.075527914 -0.027428836 -0.018095024
0000c0 a8 ee 71 3d 7a 1a 0b bd b0 7c 2a 3a c3 f9 40 3d
       0.05906549 -0.033960797 0.0006503565 0.04711319
0000d0 b5 67 47 bb 1f 16 19 3d 27 c9 bf bb f1 ae 80 bb
       -0.0030426804 0.037374612 -0.0058528366 -0.0039271046
0000e0 12 fe 72 3b a2 87 c0 3c 11 ad c6 bb d2 50 c6 bb
       0.0037077707 0.023502175 -0.0060631116 -0.006052115
0000f0 c7 d1 1d bc 8f e3 b9 3b 17 32 1d 3c 9b 33 03 bd
       -0.009632534 0.005672879 0.009594462 -0.032031637
000100 5c 4e 84 3d e9 c1 a6 3b ca 3a 8e ba 99 c6 f2 bc
       0.06460258 0.005089034 -0.0010851261 -0.029635714
000110 68 97 2f 3b 02 2b 71 3c b4 63 dd bd cb 3c 35 bc
       0.0026793126 0.0147197265 -0.108100325 -0.011061857
000120 e7 0c da 3c d7 a1 22 3c 58 8e bd 3b a4 d3 57 bd
       0.02661748 0.009926281 0.005784791 -0.05269207
000130 30 24 8d bb 5f 96 70 bd a7 5f bd bc c7 34 be 3c
       -0.0043072924 -0.058737155 -0.0231169 0.023218526
000140 8b b8 3d 3c 07 b1 eb bb e0 ac a9 bc 51 fa f2 3c
       0.011579643 -0.007192734 -0.020712316 0.029660376
000150 5e 6b 7e bb fe c5 03 bd 1f a9 b1 bb ea c2 1d 3d
       -0.003882132 -0.032171242 -0.005421772 0.038515963
000160 28 35 2f 3b 72 5f 1d bd 57 b8 15 3c 66 32 10 3d
       0.0026734564 -0.038421102 0.009138188 0.035204314
000170 e2 71 6f bb 69 cf b9 bd 1c 41 9c bd 61 2c 1b bd
       -0.0036536385 -0.090727635 -0.07629606 -0.03788412
000180 4d b2 86 3d c5 54 95 3b 76 50 3b 3d 6b 62 0e bb
       0.06576977 0.0045572245 0.04573103 -0.0021726142
000190 0a bb 10 3c 3a 38 be 3b 47 34 6c 3c 4d 4c ce bb
       0.008833656 0.0058050426 0.014416761 -0.006295717
0001a0 2a 2c 93 bc a8 37 aa bc c3 82 0c bd c9 1f 06 3d
       -0.017965395 -0.020778492 -0.03430439 0.032745156
0001b0 33 6d ae 3c 47 58 b2 bc 6d 1b b0 3c 83 73 55 bb
       0.021292305 -0.02177061 0.021497453 -0.003257007
0001c0 25 f3 e4 bd a6 ba 00 bc 4b dd 8e bc 1f 14 64 bc
       -0.11179189 -0.007857 -0.017439505 -0.013920813
0001d0 0f d6 95 bc d0 12 b1 3c 3f f1 4e 3c c0 0d 3f ba
       -0.018290548 0.021615416 0.01263076 -0.00072881207
0001e0 a8 5c 38 bd a8 6c 0e 3d 57 05 e2 bc 6e fb 34 3d
       -0.04501024 0.03477159 -0.027590437 0.044185095
0001f0 30 29 12 bb 42 35 12 bd 5c 88 f5 3b 6b ab 1b bc
       -0.0022302382 -0.03569532 0.007493062 -0.009501318

sequential/dense/MatMul/ReadVariableOp/transpose i1 [128, 128] scale=0.006625271 zero_point=0
000000 e3 21 f7 e8 f6 f0 1f e4 11 fa ef cc 21 ed 0b 24
       -0.19213286 0.21863393 -0.05962744 -0.1590065 -0.06625271 -0.106004335 0.2053834 -0.18550758 0.11262961 -0.039751627 -0.11262961 -0.3445141 0.21863393 -0.12588015 0.07287798 0.23850976
000010 21 11 d2 17 e6 02 f7 1f 0c 05 ec 14 0c 02 fe fb
       0.21863393 0.11262961 -0.30476245 0.15238123 -0.17225705 0.013250542 -0.05962744 0.2053834 0.07950325 0.033126354 -0.13250542 0.13250542 0.07950325 0.013250542 -0.013250542 -0.033126354
000020 ec 07 07 f6 00 f2 e9 16 f8 15 04 16 f5 28 0d c8
       -0.13250542 0.046376895 0.046376895 -0.06625271 0.0 -0.09275379 -0.15238123 0.14575596 -0.053002167 0.1391307 0.026501084 0.14575596 -0.07287798 0.26501083 0.086128525 -0.37101516
000030 00 21 f2 0b fe f8 f1 13 ec 27 14 fe da 02 fb 08
       0.0 0.21863393 -0.09275379 0.07287798 -0.013250542 -0.053002167 -0.09937906 0.12588015 -0.13250542 0.25838557 0.13250542 -0.013250542 -0.2517603 0.013250542 -0.033126354 0.053002167
000040 fa 0d de ee 07 12 e9 0e df f1 05 e8 1e e4 16 25
       -0.039751627 0.086128525 -0.22525921 -0.11925488 0.046376895 0.11925488 -0.15238123 0.09275379 -0.21863393 -0.09937906 0.033126354 -0.1590065 0.19875813 -0.18550758 0.14575596 0.24513502
000050 26 16 03 04 0f 04 1a f5 f5 fc 0a 23 e7 12 f9 0c
       0.2517603 0.14575596 0.019875813 0.026501084 0.09937906 0.026501084 0.17225705 -0.07287798 -0.07287798 -0.026501084 0.06625271 0.23188448 -0.16563177 0.11925488 -0.046376895 0.07950325
000060 f5 ec ed d7 fc fb 17 38 0b 23 f6 14 13 03 22 d2
       -0.07287798 -0.13250542 -0.12588015 -0.2716361 -0.026501084 -0.033126354 0.15238123 0.37101516 0.07287798 0.23188448 -0.06625271 0.13250542 0.12588015 0.019875813 0.22525921 -0.30476245
000070 0e 06 eb 05 fe f5 0c 0c f2 d6 1b 0f 05 2f 1e 06
       0.09275379 0.039751627 -0.1391307 0.033126354 -0.013250542 -0.07287798 0.07950325 0.07950325 -0.09275379 -0.2782614 0.17888232 0.09937906 0.033126354 0.31138775 0.19875813 0.039751627
000080 08 ef 13 fe 08 f4 0e f8 f6 24 05 0a 00 f8 ee 13
       0.053002167 -0.11262961 0.12588015 -0.013250542 0.053002167 -0.07950325 0.09275379 -0.053002167 -0.06625271 0.23850976 0.033126354 0.06625271 0.0 -0.053002167 -0.11925488 0.12588015
000090 ff cc 0b 03 f6 13 dd 09 04 e4 01 15 08 05 d9 f3
       -0.006625271 -0.3445141 0.07287798 0.019875813 -0.06625271 0.12588015 -0.23188448 0.05962744 0.026501084 -0.18550758 0.006625271 0.1391307 0.053002167 0.033126354 -0.25838557 -0.086128525
0000a0 f0 17 f7 07 0e fb 13 d1 f7 fe e7 e6 f6 0a f2 09
       -0.106004335 0.15238123 -0.05962744 0.046376895 0.09275379 -0.033126354 0.12588015 -0.31138775 -0.05962744 -0.013250542 -0.16563177 -0.17225705 -0.06625271 0.06625271 -0.09275379 0.05962744
0000b0 e0 f1 00 e1 28 f4 15 f9 f9 f6 10 ec ff fa e4 e2
       -0.21200867 -0.09937906 0.0 -0.2053834 0.26501083 -0.07950325 0.1391307 -0.046376895 -0.046376895 -0.06625271 0.106004335 -0.13250542 -0.006625271 -0.039751627 -0.18550758 -0.19875813
0000c0 e3 f6 de f4 d4 12 fb 18 1b 06 09 f9 07 03 06 fe
       -0.19213286 -0.06625271 -0.22525921 -0.07950325 -0.29151192 0.11925488 -0.033126354 0.1590065 0.17888232 0.039751627 0.05962744 -0.046376895 0.046376895 0.019875813 0.039751627 -0.013250542
0000d0 ee f9 f2 1f f3 06 fc 10 e1 07 16 ef f1 da 00 18
       -0.11925488 -0.046376895 -0.09275379 0.2053834 -0.086128525 0.039751627 -0.026501084 0.106004335 -0.2053834 0.046376895 0.14575596 -0.11262961 -0.09937906 -0.2517603 0.0 0.1590065
0000e0 10 e4 11 f9 2d 0e 07 07 04 fa 0f fc 1a 0f 0f 09
       0.106004335 -0.18550758 0.11262961 -0.046376895 0.2981372 0.09275379 0.046376895 0.046376895 0.026501084 -0.039751627 0.09937906 -0.026501084 0.17225705 0.09937906 0.09937906 0.05962744
0000f0 24 13 cb f2 07 01 0d 02 ed 15 f5 f3 04 d3 fe 18
       0.23850976 0.12588015 -0.35113937 -0.09275379 0.046376895 0.006625271 0.086128525 0.013250542 -0.12588015 0.1391307 -0.07287798 -0.086128525 0.026501084 -0.2981372 -0.013250542 0.1590065
